model/custom.pth (torch, 275188 bytes, 8 tensors)

fc1.weight f4 [256, 4]
000000 2e 8f ce be d8 34 41 be 2c 68 6a be 8c 62 89 be
       -0.40343612 -0.18867815 -0.22891301 -0.26832998
000010 42 8e 9e 3e a7 bf 9d 3e b2 20 03 bf 19 44 23 3e
       0.3096791 0.30810282 -0.51221764 0.15943946
000020 bc 7b bf be 75 39 95 be 42 6b ec bd 3f 66 b6 3e
       -0.3739909 -0.291454 -0.11543895 0.35624883
000030 08 f8 20 be 74 af 3e be 80 2e 04 bd fc ea 94 be
       -0.15719616 -0.18621618 -0.03227091 -0.2908553
000040 a5 96 9b 3d 0f f3 48 3e 17 23 45 bd 29 1a 8c be
       0.075970925 0.1962397 -0.048129167 -0.2736371
000050 55 bf d4 3e ce a8 bf 3e ea 92 85 3d ea 51 a8 be
       0.41552225 0.37433475 0.06522162 -0.32874995
000060 c6 e2 0b be 96 e8 a8 be b9 c0 23 3f c8 51 82 3e
       -0.13660726 -0.3298995 0.63965946 0.2545302
000070 e3 b1 d6 3c ad ee bd bd ab ce c5 3e 02 be 35 3d
       0.02620787 -0.092740394 0.38634238 0.04437066
000080 00 c2 45 bd 20 a8 24 be b6 d3 b9 be 5e dc 90 be
       -0.048280716 -0.1607976 -0.36294335 -0.28293127
000090 7c 27 13 be 3c d4 d7 be a8 20 c8 bd 64 f2 41 be
       -0.14370531 -0.4215411 -0.09771854 -0.18940121
0000a0 94 3b e9 be cb b8 ea 3e fd 9c a1 3e 1f 87 fc 3d
       -0.45553267 0.4584411 0.31565085 0.1233046
0000b0 19 1c cc be 31 e9 9a be 4a da 32 3f 1e 73 c1 3e
       -0.39865187 -0.30256036 0.6986433 0.3778314
0000c0 d8 e8 e0 3e 61 7e e5 bc d0 bc 78 be 50 59 95 3e
       0.43927646 -0.028014364 -0.24290776 0.29169703
0000d0 ca 9a f3 3d c8 62 cd 3e 47 3c 2e 3e 21 1b 7f 3e
       0.11894758 0.40114427 0.17015181 0.24912693
0000e0 0a ce b0 3d 40 4c 48 3e 76 35 8e be 19 64 af 3c
       0.08633049 0.19560337 -0.27775162 0.021410035
0000f0 6d bb c3 3d a3 37 95 3e 86 98 b5 be de 0b 9d be
       0.09557233 0.2914401 -0.3546793 -0.30673116
000100 49 d5 74 3e 20 92 8a 3d af 08 22 be fc af bb 3e
       0.23909487 0.067661524 -0.15823625 0.36657703
000110 69 ef cd 3c f0 db 39 3e 9c 68 44 be 52 c5 0d bf
       0.025138574 0.18150306 -0.1918053 -0.5537921
000120 62 c1 17 be 27 52 e5 3d f6 99 dd 3e 46 b4 f8 3c
       -0.14819863 0.1119731 0.43281525 0.030359399
000130 c0 84 94 bc 5a f0 ed be ea ee 1b be a0 9e 8f 3e
       -0.018129706 -0.46472436 -0.15227857 0.2805071
000140 65 82 e6 3e c0 1d d0 3d 2d 4c 87 3d f6 3a e2 3e
       0.45021358 0.10161924 0.06606326 0.4418561
000150 73 85 93 be 18 ec 62 be 15 de 87 3e 93 37 88 3e
       -0.2881275 -0.22160375 0.26536623 0.266049
000160 ce 10 b6 be a2 92 f2 3d 87 66 60 be 6e 20 ee be
       -0.35559696 0.11844374 -0.21914111 -0.46509117
000170 eb 3b 1d be b5 62 17 3e de ce bc be de 45 7a bd
       -0.15354888 0.14783747 -0.36876577 -0.061101787
000180 bd fd ae be 93 b1 dc be 2f 1a 9b 3d b9 b3 99 3e
       -0.34177962 -0.43104228 0.075733535 0.3001993
000190 fa 2d 92 be d0 e8 2e bd 28 3f b8 3e c4 0e 35 be
       -0.28550702 -0.042702496 0.35985684 -0.17681414
0001a0 a0 96 b3 be 9c 2d 47 be a4 0c 07 3e 30 bb 8b be
       -0.35075855 -0.19450992 0.13188416 -0.2729125
0001b0 bb c1 4a 3e e2 ef 8b be 90 fa 83 3d a6 89 2e 3e
       0.19800465 -0.27331454 0.064442754 0.17044696
0001c0 b2 25 79 3c c2 b9 c5 3e d1 53 25 bf 6a 5b f2 3d
       0.015206741 0.38618284 -0.6458102 0.11833842
0001d0 7c b9 38 be d4 02 e6 be d8 1a b9 be c1 09 b5 3e
       -0.18039507 -0.44924033 -0.36153293 0.35359004
0001e0 d9 9e 9a 3e 60 4c cb be 82 1c f5 3e 05 bf 58 3e
       0.30199316 -0.39706707 0.47873312 0.21166618
0001f0 be 15 99 be fc d6 ee 3e b8 e7 88 be aa 3f 24 be
       -0.298994 0.46648395 -0.26739287 -0.16039911
000200 b3 dd a7 3b 0a 11 c6 bc b1 51 42 3e 23 96 2f 3e
       0.005122864 -0.024178047 0.18976475 0.17147116
000210 69 b5 9f bd bc 41 04 bf 5c 3c ee ba 28 e3 d5 3e
       -0.07798273 -0.516628 -0.0018175947 0.4177487
000220 c6 c9 b4 bd 97 ae 39 3e d4 af 05 bd 58 ff b5 3e
       -0.08827548 0.18133007 -0.032638386 0.35546374
000230 a3 23 98 be 84 25 bf 3e b5 1a 82 be 7c d0 29 be
       -0.2971469 0.3733331 -0.25411 -0.16583437
000240 f6 87 90 be a0 26 38 bd 22 f1 95 3e e0 0b fe bd
       -0.2822873 -0.04495871 0.29285532 -0.12404609
000250 50 38 31 bd 80 b7 ad bc a0 ba 3b 3e 78 fe a4 be
       -0.043266594 -0.021205664 0.1833291 -0.32225394
000260 5e ef e0 bd dc 1c 26 3d 10 de ce 3e 14 de a5 3e
       -0.10983156 0.040554866 0.40403795 0.32395995
000270 5f 98 6d 3d 04 e6 ba be 7a 1a bb 3e 63 d7 3b 3e
       0.05800664 -0.36503613 0.36543638 0.18343882
000280 16 68 d0 be 80 25 8d 3b ec cc dd 3e 98 cd c4 be
       -0.4070441 0.004307449 0.43320405 -0.38438106
000290 64 5b ce bd c1 58 95 be 88 d5 d6 3d 98 e3 bf 3e
       -0.10076025 -0.29169276 0.104899466 0.37478328
0002a0 06 96 df be 55 6f af 3e 6a be 53 3e e4 e7 6e 3e
       -0.43669146 0.34264627 0.20678106 0.23330647
0002b0 e0 e1 bc bc 68 12 80 be a4 fc dc 3e 0c e8 b2 be
       -0.023056924 -0.25014043 0.431615 -0.34942663
0002c0 13 71 f0 3e 66 a6 1d bf 7f 26 bc be f4 20 75 be
       0.4696127 -0.6158203 -0.3674812 -0.23938352
0002d0 08 44 29 be f2 9a 82 be d0 72 65 3d 40 8a bd bc
       -0.16529858 -0.2550884 0.056017697 -0.023137212
0002e0 da 80 b8 3e 48 3b ab 3e 88 b4 ce be b6 74 46 be
       0.36035806 0.33443666 -0.4037211 -0.19380459
0002f0 a0 c2 e5 3c 70 a6 c2 bd 53 60 9f be 2a 18 03 3f
       0.028046906 -0.09504402 -0.31128177 0.51208746
000300 37 88 d5 3e 87 f6 f8 be 5b 7e b0 bd 93 cc e0 3c
       0.41705486 -0.48625585 -0.086178504 0.027441299
000310 5c 96 b9 3e 19 ad b0 be f3 87 93 bd 69 ec 70 3e
       0.36247528 -0.34507063 -0.07203665 0.23527683
000320 bc fe d9 be bb bf a8 3d 1a b3 a0 3e 30 af 92 3e
       -0.4257716 0.08239695 0.31386644 0.28649282
000330 c5 b3 ef be 7e 56 98 3e 62 c8 8a 3e d9 8a dd 3e
       -0.4681684 0.29753488 0.27106005 0.43269995
000340 91 d4 ab 3c 4a 85 33 be 3c 29 ea be e9 8c 12 3e
       0.020975383 -0.17531314 -0.45734584 0.14311565
000350 55 26 c7 3e 55 01 60 3e 59 d9 91 3e c5 f9 b2 3e
       0.38896433 0.21875508 0.28486136 0.34956184
000360 98 64 fa be 90 85 58 bd cc 50 a4 be e6 7e d8 be
       -0.48904872 -0.05286175 -0.32092893 -0.42284316
000370 f6 fb f4 be ff fe b8 3d 75 b3 9d be fd 17 9b be
       -0.4784848 0.09033012 -0.30800977 -0.3029174
000380 43 c7 ba 3d ab 92 f0 be de 2b f6 be 60 6d d1 bc
       0.091200374 -0.469869 -0.48080343 -0.02556485
000390 96 14 c8 3e 72 57 03 bf 24 29 ac be d8 7c 4b be
       0.39078206 -0.51305306 -0.33625138 -0.19871843
0003a0 08 6d 9d 3e b8 12 a5 3e 71 8c 87 3e 97 fd 0d be
       0.30747247 0.32240844 0.26474336 -0.13866268
0003b0 37 13 6b 3e 4d 54 bc be 3f 0c 9f be d5 66 bc 3e
       0.22956549 -0.36783066 -0.3106403 0.36797205
0003c0 84 8c 39 3e 78 01 93 3c 82 83 1a be 77 10 cb 3b
       0.18120009 0.017945036 -0.15089229 0.006197031
0003d0 3a 4f 9d be 98 f6 24 be c0 62 66 3d 00 e0 21 ba
       -0.30724508 -0.16109693 0.05624652 -0.0006175041
0003e0 df 33 b9 bc ed de 4e 3e 08 79 9c 3e 66 e8 09 bd
       -0.022607742 0.20202227 0.3056109 -0.033668898
0003f0 12 48 9e 3e 6c c9 90 3e 91 2b df 3e 68 cc 40 3e
       0.3091436 0.28278673 0.43587926 0.18827975

fc1.bias f4 [256]
000000 b8 d6 29 be 26 ae 80 bd 41 76 7b 3e 74 22 70 be
       -0.16585815 -0.06283216 0.24556829 -0.23450643
000010 7c 96 a1 3e f4 9a ce 3e 53 9b 94 3e b6 a5 02 3e
       0.31560123 0.40352595 0.29024753 0.12758526
000020 8c 71 16 be e0 e5 34 be ee f7 2d be e4 fa 14 3f
       -0.14691752 -0.17665815 -0.16989109 0.5819533
000030 ff aa f6 be fe ce f1 3e 23 24 e4 bd 43 48 cd be
       -0.48177335 0.47228235 -0.11139705 -0.40094194
000040 c9 2a 12 bf 42 95 11 be 9b 53 77 3e 6f fa 84 3d
       -0.57096535 -0.14217094 0.24152987 0.06493079
000050 4a 9e ae be 75 22 fb 3e 99 66 dc be 09 c8 fe bd
       -0.3410514 0.49049726 -0.43047026 -0.124404974
000060 75 58 06 be 10 08 e7 bd 08 0a 77 be cc 1f dc 3e
       -0.13119681 -0.11280835 -0.2412492 0.4299301
000070 bc 87 9d bd 52 b8 38 be 3e c4 05 bf b7 aa 89 be
       -0.07691905 -0.18039063 -0.52252567 -0.26888058
000080 c2 9b fd 3d 8c 44 83 be 14 af 9a be c4 72 3d 3e
       0.12383224 -0.25638235 -0.302117 0.18500811
000090 d8 56 04 be 56 d3 d2 be a8 a4 be 3e 56 a5 6f 3e
       -0.12923753 -0.41176862 0.37234998 0.23402914
0000a0 74 29 55 be bd 67 0d 3f 89 88 e6 3e 00 3b d9 3b
       -0.20816594 0.5523642 0.45026043 0.006629348
0000b0 22 a4 18 3d 18 0d f5 be 1e 00 4e 3e 0c 2b dd be
       0.037265904 -0.47861552 0.20117232 -0.43196905
0000c0 5f f8 50 be dc bb 63 3e 27 e5 1c 3f 76 28 07 bf
       -0.20407246 0.22239631 0.6128716 -0.52796113
0000d0 cb 97 0b 3f 48 77 ae 3e 40 04 f1 bd 5b b5 8b be
       0.5452849 0.3407538 -0.11768389 -0.272868
0000e0 dd 0d 12 3d da ee 60 3d ad 72 8b 3e f0 19 27 bd
       0.035657752 0.054915287 0.27235928 -0.04079622
0000f0 7b 09 9a be 58 54 13 3e 9b 6f d0 be a6 eb 84 3e
       -0.30085358 0.14387643 -0.40710148 0.25961035
000100 0f 2b ee bd 44 b7 91 3e 3d ea 49 3e 94 34 91 3e
       -0.116293065 0.28460133 0.19718261 0.28360426
000110 c0 06 2d be eb d3 16 3f df 69 7a 3d 2b 9a dd 3e
       -0.16897106 0.5891711 0.061136123 0.43281683
000120 91 a0 cf 3e b0 69 54 be b0 c2 93 3d 03 f2 c2 be
       0.4055219 -0.20743442 0.07214868 -0.38075265
000130 5c 38 97 3e a8 a5 f6 bd 30 e3 7b 3d c3 b9 14 3f
       0.29535186 -0.12043315 0.06149596 0.5809595
000140 88 b7 7b 3e a0 77 70 be c3 8d f3 be 41 e3 7f be
       0.2458173 -0.23483133 -0.47569093 -0.24989034
000150 6c 75 85 3d 12 36 8f be 0f ac 06 bf 41 24 92 be
       0.06516537 -0.2797094 -0.5260629 -0.28543285
000160 31 6c 1e bf 90 45 8f be d9 16 96 3e 61 e3 6b 3e
       -0.61883837 -0.2798276 0.29314306 0.23035957
000170 5d 4e a4 3d 9f aa 53 be 96 50 4a be 54 f6 0d bf
       0.08022759 -0.20670556 -0.19757304 -0.5545399
000180 18 34 3a be f5 be e9 3e 1a 7b 9f 3d 7a 69 50 be
       -0.18183935 0.456535 0.07787152 -0.20352736
000190 e8 61 98 3e 30 4b 19 3f eb 98 49 bd f5 8a dd bd
       0.29762197 0.5988035 -0.0492181 -0.108175196
0001a0 af ef d6 3e b3 2d b8 3e 67 9b a8 bc 7c 3c 5d 3e
       0.4197974 0.35972366 -0.020581914 0.21605104
0001b0 d7 d8 0a bf 1a 22 01 bf 03 02 86 3e 9f d8 a2 be
       -0.5423712 -0.5044266 0.2617341 -0.31805894
0001c0 27 d5 cc 3e 8c 1a 63 be 13 36 db 3e cf de 8a 3e
       0.40006372 -0.22178096 0.42814693 0.27123114
0001d0 e3 9d dc 3e f4 9b 45 3e 7b 0b 73 3e e0 6d 17 bd
       0.43089208 0.19297773 0.23734848 -0.03697002
0001e0 5f 0c af 3e 1f 34 c6 bd 4f f7 5c 3e 24 24 63 3d
       0.34189126 -0.0967791 0.21578716 0.05545439
0001f0 60 ba 76 3d d8 aa 40 be 26 3c b7 3e 9e 87 2f 3d
       0.060236335 -0.18815172 0.35788077 0.042853944
000200 db ca f0 3e c2 b1 92 bc 7c 02 7f be 17 37 9f be
       0.47029766 -0.017907027 -0.24903291 -0.31096718
000210 84 fe e0 be 3f 70 5f bd 71 38 f3 3c c0 d2 af 3e
       -0.4394418 -0.054550406 0.02969 0.34340477
000220 d2 bc 1c 3f 68 c2 f1 bd 7b 71 ce be 65 85 d4 be
       0.61225617 -0.11804658 -0.40320954 -0.41508022
000230 bc d8 b6 3e f3 4a 18 bc 9c f8 28 3d 54 ac 88 be
       0.3571223 -0.009295213 0.041252717 -0.26693976
000240 ca 7e 9f bd e1 e0 98 bd 33 97 ba be 00 c0 0d bf
       -0.07787855 -0.07464767 -0.3644348 -0.55371094
000250 5c fa 38 be aa ee b6 be 31 4e 2c 3e 64 0c a8 be
       -0.18064255 -0.3572896 0.16826703 -0.32821953
000260 21 a3 d0 3d 7b fb f7 be c4 cb 91 3d 67 8f 2a be
       0.10187364 -0.48434052 0.07118943 -0.16656266
000270 fd 77 40 3f c2 ef fd 3e 60 9c 36 be e3 37 0a be
       0.7518309 0.49596983 -0.1783309 -0.13497882
000280 2d 9f b5 be 08 db 0a bf bd 59 8d 3e c6 19 04 3f
       -0.35473004 -0.54240465 0.27607527 0.5160183
000290 5e 5a 9e be e9 82 a3 be b2 ac 90 be 29 b2 d3 3d
       -0.3092832 -0.31935814 -0.28256756 0.10336716
0002a0 cf 97 94 be e0 54 5d 3e d8 ae 3a 3e 64 f5 e6 bd
       -0.2902207 0.21614408 0.1823076 -0.11277273
0002b0 e3 69 9c be d7 c4 8d be e0 df 72 3e b9 db 6f 3e
       -0.30549535 -0.2768924 0.23718214 0.23423661
0002c0 af 5d 92 be 64 97 d4 3e 2e 53 22 be de a7 76 3e
       -0.285871 0.41521752 -0.15852043 0.24087474
0002d0 e4 a0 68 be 7c 91 bb 3e 68 db 9b 3e ab 42 aa 3e
       -0.22717625 0.36634433 0.3044083 0.3325399
0002e0 fc ed 56 be 3e d6 93 3e be 92 3c 3e 20 0e 5b 3d
       -0.20989221 0.2887439 0.18415353 0.053480268
0002f0 91 c6 e8 be b5 ef 55 be b3 0d c3 be a5 21 c3 3e
       -0.45463994 -0.20892222 -0.3809639 0.38111606
000300 f7 bc 7b be cd 39 cb be 16 78 82 bd dc 1c 3b 3d
       -0.24583803 -0.39692536 -0.06370561 0.04568182
000310 d2 7a 00 bc 85 d6 09 bf 30 b9 f9 be ce 6d 6f 3e
       -0.007841783 -0.53842956 -0.487741 0.23381731
000320 a8 e7 ff be 86 c5 dd be 17 26 10 bf 41 78 23 3c
       -0.49981427 -0.4331476 -0.5630812 0.009977401
000330 62 40 6b be 54 4e 4e 3e 75 0a ee 3e 2d 85 b7 3e
       -0.22973779 0.20147067 0.46492353 0.35843793
000340 01 8d c1 3d 53 a5 97 3d f0 69 47 3e fc 03 e2 be
       0.094507225 0.0740458 0.19474006 -0.44143665
000350 d5 e6 35 be c9 f7 9d 3e c4 2a c7 be 60 f8 80 be
       -0.17763837 0.30853108 -0.38899815 -0.25189495
000360 78 07 09 bf 0c 48 4a 3e 2c c5 1d bf 00 4d b9 3c
       -0.5352702 0.19754046 -0.61628985 0.022619724
000370 b9 b6 12 3f e9 63 39 3d d0 79 df 3d 0b a9 05 3f
       0.5731006 0.045261297 0.10911906 0.52211064
000380 ba 12 09 3f e8 19 99 3e 24 f2 f9 be 80 49 9e 3b
       0.535442 0.29902577 -0.4881755 0.004830539
000390 75 3d 00 be 00 d4 26 be 45 27 db 3e 6e 7e c4 3d
       -0.12523444 -0.16291809 0.42803398 0.09594427
0003a0 a6 2d af be 43 74 fa bc f8 a8 20 be f7 43 a5 3e
       -0.34214514 -0.030573016 -0.15689456 0.32278416
0003b0 56 f7 5d 3e 38 37 db 3e 8c 78 0c bf a8 0b 17 3e
       0.21676382 0.42815566 -0.5487144 0.1475054
0003c0 0a 05 96 3e e1 a8 ba 3d 2d 40 0d 3e e0 64 cb 3c
       0.2930072 0.09114242 0.13794012 0.024828374
0003d0 53 cc 85 be 22 9e d2 be 5e 9d b5 be d5 a0 ca 3e
       -0.2613245 -0.4113627 -0.35471624 0.3957583
0003e0 60 b3 99 be fa e0 05 3f 2c 71 b6 3e 77 47 91 be
       -0.30019665 0.5229641 0.35633218 -0.28374836
0003f0 76 a8 bc 3e 5f 62 4e 3e 61 41 fd be c0 be 16 3e
       0.36847275 0.20154713 -0.49463943 0.14721203

fc2.weight f4 [256, 256]
000000 48 6b 85 3c cb d0 aa bc af 09 11 bd bc 59 3e 3d
       0.016286507 -0.020851513 -0.035409626 0.046472296
000010 30 8d 2f bd 7a 8b 60 3c 9b 58 2d bd 88 bd 2f bc
       -0.042859256 0.013705129 -0.04232083 -0.01072634
000020 30 94 db bb 98 d9 6e bd 55 d5 5b 3d 15 97 df bd
       -0.006701015 -0.058312982 0.053670246 -0.109174885
000030 44 f5 12 bd 71 2e 0c 3d dc 02 ff bc e8 7a e3 3c
       -0.035878435 0.034223977 -0.031129293 0.027768567
000040 3f 26 46 3d bf 0d 33 3d cd 12 d5 bc 1b c6 26 bc
       0.048376318 0.04371428 -0.026009941 -0.010179068
000050 d5 99 33 bc 5c f3 ad bd 3f c2 95 bb 78 ef 34 3e
       -0.010961969 -0.08493683 -0.004570275 0.17669475
000060 b7 0c 3a 3d f8 14 35 bd 02 d8 4a 3d 7b a3 37 bc
       0.045422282 -0.04420945 0.049522407 -0.01120841
000070 b4 a3 92 bc 23 a9 2a bd 98 2b fe bc 95 92 07 3d
       -0.017900325 -0.041665208 -0.031026646 0.033098776
000080 6c 80 3b bd c2 22 d4 3c 45 04 4e 3d c6 b2 77 3b
       -0.04577677 0.02589548 0.05029704 0.0037795766
000090 ac 9d fe bc fa 18 0b 3d 2d f4 9c bd cf 92 bc bd
       -0.031081043 0.033959366 -0.0766376 -0.09207689
0000a0 a0 e5 da bb f0 b3 8b bd b7 f9 e7 bc c8 b7 7f bc
       -0.0066802055 -0.0682143 -0.028317316 -0.015607782
0000b0 1c 38 e9 bd 80 30 31 ba 97 46 7a bd 5f cf 06 bd
       -0.11387655 -0.0006759241 -0.061102476 -0.03291261
0000c0 a6 e0 79 3d df 6d 1a bc 3d cd e1 bd 1e 20 d3 3d
       0.061005257 -0.009425609 -0.11025474 0.1030886
0000d0 74 b0 4a bd 72 b6 26 bb 20 0a 20 bc 98 af 1c 3d
       -0.049484685 -0.0025438336 -0.009768039 0.038253397
0000e0 b0 3f 21 bc df 28 08 be 14 7f 7c bd e9 00 0f bd
       -0.009841844 -0.13296841 -0.06164463 -0.034912977
0000f0 29 e8 7b 3d 20 28 56 3d 17 02 8c bc 9f 89 d2 bc
       0.061500702 0.05228436 -0.01709084 -0.025700388
000100 ed 23 99 bc 10 09 e6 bc 07 c5 2a ba 1c 53 cd 3c
       -0.018693889 -0.028080493 -0.0006514345 0.025064044
000110 03 b5 91 bb 98 68 b0 bd 9e 8a 8f bb a7 56 1a 3d
       -0.004446627 -0.086137 -0.004380538 0.037680294
000120 c2 31 bc 3c 00 e5 af ba 89 1d 4a 3c f9 e1 89 bc
       0.022972945 -0.0013419688 0.012336143 -0.016831385
000130 22 09 07 bd 7a b6 38 bd f8 7e 29 bc a0 0c 90 bd
       -0.032967694 -0.0450959 -0.010345213 -0.07033658
000140 d3 05 b8 bc 00 e3 7f bd 8f 1d 57 bd d8 40 88 bd
       -0.022463715 -0.062472343 -0.052518424 -0.06652993
000150 4a 3d b1 3c 20 9b 04 3e 02 4f 61 3d 1a 0a 43 bd
       0.02163567 0.129498 0.05500699 -0.047617055
000160 09 f2 b3 3c b4 84 5a 3d de b3 c7 bc 82 6e 0a bc
       0.021965997 0.05334921 -0.02437776 -0.008449199
000170 16 20 96 bd 4e 3c 68 39 5b b0 da bb f1 5b aa 3d
       -0.07330339 0.0002214771 -0.0066738552 0.08318318
000180 30 5e 94 3c 40 7b c7 3c f4 2e 3a 3c d6 fd 26 bc
       0.018111318 0.024350762 0.011363734 -0.010192355
000190 d0 ba e9 ba 29 79 92 bb 10 64 05 3d a2 60 3c 3d
       -0.0017832164 -0.00447001 0.03256613 0.045990594
0001a0 03 7f 25 be d6 eb 8c 3d 55 3d d2 3c 38 22 3d 3c
       -0.16161732 0.0688092 0.025664011 0.011543803
0001b0 3a e5 ae 3d f0 a6 c9 3b e6 a4 45 3d 34 c7 12 bd
       0.08539815 0.0061539337 0.048252963 -0.035834506
0001c0 92 6c 8c 3b 49 88 86 3c 4b 4f b2 bd 98 1d 31 be
       0.0042854035 0.016422408 -0.0870653 -0.17296445
0001d0 ff 01 e4 3b 50 1a 2f bd 11 b5 f4 3c c8 4d a4 3c
       0.0069582458 -0.042749703 0.029871495 0.02005662
0001e0 cb fb 2d bd 54 4c a7 3b 76 7e 60 ba 81 8f ae bc
       -0.042476457 0.0051055346 -0.0008563766 -0.021308662
0001f0 00 60 29 3d 28 b9 1f 3d 9c 51 76 bd 78 54 8c 3c
       0.04135132 0.038994938 -0.060136423 0.017130122
000200 43 5e 34 bd d9 b0 a1 3c 44 92 68 bd 30 c8 7f 3b
       -0.044035207 0.019737648 -0.056780115 0.0039029233
000210 01 d2 74 3d 34 8e 69 be d3 2d 84 3c d9 5f 13 b8
       0.059770588 -0.22808152 0.016135132 -3.5136796e-05
000220 5c ff 62 be 44 9b f0 bc e2 ad b0 3d ad 63 0f 3d
       -0.22167724 -0.029370911 0.086269155 0.035007168
000230 69 8c c5 bd 78 ef 7a bd ef 66 21 bd ba b5 2f 3d
       -0.09645922 -0.06126353 -0.039404806 0.042897917
000240 1e 3c 7b bd de 4e 0c 3c bc 01 07 3d 86 8a 31 bd
       -0.06133663 0.008563725 0.03296064 -0.043344997
000250 da 55 17 3d 12 ed 8f 3c 47 0e 93 3c 84 55 fe 3d
       0.03694711 0.017569099 0.017951144 0.124186546
000260 07 f1 8e bc 46 bc 0c bb 11 67 8c bb e6 e0 49 3d
       -0.017448915 -0.0021474524 -0.0042847474 0.049286745
000270 a2 b4 c1 bd a9 55 28 bc 80 be 19 3a 56 9a 73 3d
       -0.09458281 -0.010274329 0.00058648735 0.059473358
000280 96 7b e1 bc 5a 6f 0c 3d 03 b8 bc bd 43 8b bf 3c
       -0.02752475 0.03428588 -0.09214785 0.023381835
000290 68 20 5a 3d 78 d9 2f 3d 6e f8 63 3c 70 0a d0 bc
       0.05325356 0.042932004 0.013914211 -0.025395602
0002a0 aa 07 5b bc 00 cd fa 3a 82 65 39 3d 27 0c 67 3d
       -0.0133685265 0.0019134581 0.04526282 0.056408074
0002b0 d2 c5 35 3d f5 69 bc bc 65 39 0e be 67 c9 e1 bb
       0.04437811 -0.022999743 -0.13889082 -0.006890464
0002c0 b0 7b db bb f6 80 5b bd 0d cd b8 bc f7 86 4c be
       -0.0066980943 -0.053589784 -0.022558713 -0.1997336
0002d0 fe 65 40 bd 70 5b 73 bc c9 54 48 bd 7e fa 50 bd
       -0.046972267 -0.014853343 -0.048908982 -0.051020138
0002e0 0d 5c cd bc f9 e7 9b ba 30 3a 20 be c4 ca c5 bc
       -0.025068307 -0.0011894695 -0.15647197 -0.024144538
0002f0 a8 ab 3d 3d 80 88 9b 3c 18 18 67 3c c1 3e 98 bd
       0.046306282 0.018985987 0.0141048655 -0.07433844
000300 f0 84 02 3d a4 cf 3d 3d f7 a3 c9 3c 21 8f 60 3c
       0.03186506 0.0463406 0.024614317 0.013706
000310 35 42 0b 3d f4 a4 7b 3d e2 94 a4 3d 15 d1 87 bc
       0.033998687 0.06143661 0.0803621 -0.01657919
000320 38 29 47 3c c3 b8 26 3d 61 15 02 bc 85 c2 5f bc
       0.012155823 0.040703546 -0.007939667 -0.013657217
000330 f9 8c 71 bd ce 78 cf bd e6 5e ef 3c 07 c3 15 bd
       -0.058972333 -0.101304635 0.029220056 -0.036562946
000340 01 a5 c7 be f0 a7 16 3d 87 1a d1 bc 3b 94 80 3d
       -0.38993075 0.03678125 -0.025525345 0.06278273
000350 30 05 ea bc 23 4e 3d bd c5 92 1d bc 52 b9 d9 3c
       -0.028566927 -0.046217095 -0.009617512 0.026577625
000360 ef 41 06 3d df 09 ec bd 59 36 05 3d 80 8c 1c 3d
       0.032777723 -0.1152532 0.032522533 0.03821993
000370 98 8c e1 3b c9 e1 6e bd 60 e5 00 bc 5d a1 b2 bb
       0.006883215 -0.058320794 -0.007867187 -0.005451365
000380 86 6f 08 3d 4c 58 9e bd 60 b7 23 3b fe 3c 08 bd
       0.033309482 -0.07731685 0.0024981126 -0.03326129
000390 fb 17 91 bd ec 4b ee bd 0c 30 71 be e8 bb 31 bd
       -0.07084652 -0.11635575 -0.23553485 -0.043392092
0003a0 06 f7 46 bd 78 f4 9f 3d 86 f8 c5 3c 44 26 e6 3c
       -0.048575424 0.078103006 0.024166357 0.028094418
0003b0 2f a6 53 3d 80 84 64 3d 1e 89 80 bc 00 53 e7 3b
       0.051672157 0.055790424 -0.015690383 0.007059455
0003c0 d4 4f 45 bd 25 36 5a bd 84 66 d3 3c d0 5e c1 bc
       -0.048171833 -0.053274292 0.02580572 -0.02360478
0003d0 2f 15 c6 3c 7a 2a 4a 3d d0 b1 0a bd 6b ac ae bd
       0.024180023 0.049356915 -0.03386098 -0.0852898
0003e0 da 2b b4 bc 50 4b fa 3c cd ab e0 3c d5 c6 03 bd
       -0.021993566 0.03055349 0.027425671 -0.032172043
0003f0 cb c3 9c bd 52 94 2b bd 00 1e 72 3c 88 7d db bc
       -0.07654532 -0.041889496 0.01477766 -0.026793256

fc2.bias f4 [256]
000000 79 6e 4e bc 93 c7 ff 3c b5 a3 35 3c 32 35 9e 3d
       -0.012599581 0.031223094 0.011086394 0.0772499
000010 c6 28 63 bd e1 ce ec bc fd 8e 52 bd 32 27 22 bd
       -0.055458806 -0.028907241 -0.051405896 -0.03958816
000020 95 21 db bd f4 a3 a7 3c d5 ac 04 bd 97 83 89 bd
       -0.10699765 0.020463921 -0.032391388 -0.06714552
000030 6c 92 83 3d a3 bd 12 bd 40 6a ff bc 21 a7 83 bd
       0.06424412 -0.035825383 -0.031178594 -0.06428362
000040 4f f1 02 3e 77 a5 a7 3b 60 4f b9 3b 48 80 f6 bc
       0.12787364 0.0051161605 0.005655214 -0.030090466
000050 be 17 16 3c 4e e8 b1 3d e9 a3 09 3e f1 e4 45 bd
       0.009160934 0.08686887 0.13441433 -0.04831404
000060 f6 8d 24 3e 8b fb f8 3d 48 84 d0 3c c5 77 5b bd
       0.16069779 0.12157353 0.025453702 -0.053581018
000070 45 1b 53 3d 68 d7 a4 3c 7a f3 cc 3a 14 66 32 3d
       0.051539678 0.020122245 0.0015636527 0.04355438
000080 b1 13 4d bd 82 9b 90 bd dd 43 7f bd aa 60 b3 bc
       -0.050067607 -0.07060911 -0.06232058 -0.021896679
000090 c5 01 ec 3d 6c 08 10 be f5 7f 0d bd b6 03 37 bd
       0.11523775 -0.14065713 -0.034545857 -0.044681273
0000a0 66 88 5b 3d ca b8 1d bd 62 2e af 3d 79 07 1b 3d
       0.053596877 -0.038506307 0.08553769 0.037848923
0000b0 0b a2 ca 3c f8 9b ee bd 11 a0 23 3d 80 ea a5 bb
       0.024735471 -0.116508424 0.039947573 -0.005063355
0000c0 b8 07 47 3c 30 a4 f4 3b 81 84 03 3e 48 87 a8 3c
       0.012147836 0.0074658617 0.12843515 0.02057232
0000d0 0a ce 49 3d ac 99 54 bd 8b 47 e7 3d 6b 41 52 ba
       0.04926876 -0.051904365 0.112929426 -0.00080206123
0000e0 b8 be 0d 3e d6 52 d5 3d 90 cd 05 bd 2d 1f 21 3e
       0.13842285 0.1041619 -0.032666743 0.15734549
0000f0 1c 33 a4 bc e0 a8 24 bd 9f a2 e0 b9 7c b2 43 3c
       -0.020043902 -0.040200114 -0.00042845772 0.011944409
000100 ae 4e 1e bd c6 47 44 3d 8f e4 67 3d 20 ab 1f bd
       -0.038649254 0.04792001 0.056614455 -0.038981557
000110 a6 c5 cb 3d 99 ef 4a 3d ec 75 52 3d 89 26 16 3d
       0.09949808 0.049544904 0.05138199 0.036657844
000120 00 02 f6 3d ac cf bb bc 17 5d 81 bd fd 79 83 3d
       0.120121 -0.022926174 -0.063165836 0.06419752
000130 63 f1 f7 3d 19 72 0a 3e 9c 03 20 3d e1 fa e9 3d
       0.12106588 0.13520087 0.039065942 0.114248045
000140 dd d5 8c bd 27 7a 99 3d 5c e4 ed 3d 84 97 49 3c
       -0.06876729 0.07494002 0.11615822 0.012304191
000150 69 31 64 bd a4 c0 e6 38 c8 d2 6a 3d 70 0f 21 bd
       -0.055711184 0.00011003137 0.057329923 -0.039321363
000160 b8 4c 32 3d c9 d4 03 bd 74 63 3e 3c af 1a 9a bc
       0.043530196 -0.03218535 0.011620391 -0.018811552
000170 9b f9 12 bd ca 07 15 3d c5 53 21 3d 16 98 b9 3c
       -0.035882574 0.03638438 0.03938653 0.022655528
000180 94 bd 19 3d 68 c6 a2 bc 8f 93 9c 3d f6 bc 9e bd
       0.03753431 -0.019869998 0.07645332 -0.07750885
000190 77 39 16 3d 48 cb c5 bc 29 8e 81 bd 0a 1c 50 3d
       0.036675896 -0.024144784 -0.06325943 0.05080799
0001a0 6c 5c e1 bc f8 32 a9 bc b0 10 60 3d d1 c9 1f 3d
       -0.02750989 -0.020654187 0.054703414 0.039010826
0001b0 1e 95 5a 3d 97 13 e5 3d 65 66 aa 39 3c ae 88 bb
       0.053364865 0.11185377 0.00032501217 -0.004171161
0001c0 2d 6b c4 3c 00 9d ba b9 32 c5 2b 3c 1b ed eb bc
       0.023976887 -0.0003559366 0.010484027 -0.028799584
0001d0 0d b8 ae 3d 73 46 1f 3d 1a 5a f1 bc fa a5 7f 3d
       0.08531199 0.038885545 -0.02946191 0.062414147
0001e0 92 a1 83 3d fa 06 6a 3d b3 2e 27 bd 53 bb c2 3d
       0.064273015 0.05713556 -0.04081602 0.095083855
0001f0 fe de 6c 3c e6 ca 15 3d 01 f6 8b bd e0 7b 23 3c
       0.014457462 0.036570452 -0.06834031 0.009978265
000200 3e 02 89 bd 46 6c 08 3d 68 49 1a bc cf ce 00 3c
       -0.06689881 0.033306383 -0.0094169155 0.007861807
000210 7c 73 bc bc 47 12 d5 3a a6 99 13 3d 9b 2d 5d 3d
       -0.023004286 0.0016256057 0.036035202 0.05399857
000220 ca d6 4b 3d 6b c8 18 3e b5 75 16 3d 3a f5 09 3c
       0.049765386 0.14920203 0.036733348 0.008420283
000230 8f 8c 0e 3d 2c f2 47 39 fe 5c d0 bc 72 c6 54 bd
       0.034802016 0.00019068335 -0.025434967 -0.051947065
000240 4a bd b4 3c 6b 11 72 bc 81 1d cf 3d 6a 72 3a bd
       0.022062916 -0.014774661 0.10113049 -0.04551927
000250 b1 1c 99 bc 34 24 1f bc a7 f5 1f 3e ba c3 9c 3d
       -0.018690439 -0.009713221 0.15621053 0.076545194
000260 92 0d ca 3d 79 6b 63 bd 28 a9 ce bc d3 de 69 bd
       0.098658696 -0.055522416 -0.025227144 -0.057097267
000270 56 24 2c 3d 8a fa c3 3d fe 4f 7f bd ce 98 17 3e
       0.04202684 0.09569271 -0.062332146 0.14804384
000280 25 7d e3 3d 0e 71 09 bd bf b9 29 bd a4 42 51 3d
       0.11107854 -0.033555083 -0.041436907 0.051088944
000290 56 17 5a 3d e6 2e 26 3e 8d d7 a0 bd 34 d2 1a bd
       0.05324491 0.16228828 -0.07853613 -0.03779812
0002a0 df e9 9e bd 81 35 8e ba 9f 56 88 ba 78 ed 41 3d
       -0.07759451 -0.0010849686 -0.0010401792 0.04734561
0002b0 00 dd 8c bd 13 d8 59 bd 28 a5 67 bd 78 08 2d 3d
       -0.0687809 -0.05318458 -0.05655399 0.042244405
0002c0 f9 89 a4 3c 15 ff 9b 3d 70 bc b0 3c f6 b2 0f be
       0.020085322 0.076170124 0.021574229 -0.14033112
0002d0 02 05 72 bd 88 36 f6 ba 41 3a 47 3c 06 4a 38 bd
       -0.059086807 -0.0018784562 0.012159885 -0.04499247
0002e0 c8 df 05 bd a4 75 ae bd 4b 43 c5 ba 5c b7 17 3e
       -0.032684118 -0.08518532 -0.0015049962 0.1481604
0002f0 90 0b f0 3b eb 3d d8 b9 71 12 07 3e f3 02 21 3d
       0.007325597 -0.00041244863 0.13190629 0.039309453
000300 47 ab d9 bc 33 aa bf 3b 93 9b 7d bd f6 05 36 bd
       -0.02657093 0.0058491467 -0.061915945 -0.04443928
000310 ed 62 b3 bc 89 44 d9 bc 0f 3e 9f bd 83 27 26 bd
       -0.021897757 -0.026521938 -0.077755086 -0.040565025
000320 14 35 4b 3e 80 f5 5e bd a5 a2 ff 3d 5d 9e 23 bd
       0.19844466 -0.054433346 0.12482194 -0.03994595
000330 98 99 48 3d a7 84 9c 3d 45 41 a9 bd 49 b1 43 bd
       0.048974603 0.07642489 -0.08264402 -0.047776494
000340 c8 f5 45 3b e5 b8 29 bc 01 0b 05 3c e2 60 3b bd
       0.0030206311 -0.010359024 0.008120299 -0.04574669
000350 ac 44 12 bb ee 32 e6 3c 85 9a 26 bd ae 3e b8 bd
       -0.0022318764 0.028100457 -0.040674705 -0.0899633
000360 c6 9e 0f bd a3 bb 10 bd 94 99 a7 bc 8b a1 ce bd
       -0.035063528 -0.035335194 -0.020458974 -0.100894056
000370 a4 36 26 3c 03 48 f1 bc 77 80 0f bd ac d7 05 3d
       0.010144863 -0.029453283 -0.035034623 0.032676384
000380 3b 6d b4 bd 5b 27 22 3e 42 cd 99 bd 68 cf 2a 3d
       -0.088098966 0.15835325 -0.07509853 0.041701704
000390 91 d6 80 bd 9f c1 24 bd 36 22 38 3e c5 bf 8c 3b
       -0.06290925 -0.040223714 0.179818 0.0042953216
0003a0 cf c3 81 bd 87 76 94 bd ff ce 03 3d 67 b6 03 3c
       -0.06336176 -0.0724917 0.03217983 0.008039094
0003b0 82 b3 91 3d 8d d7 bc 3c 31 c8 f3 3d f7 2b 98 bd
       0.071143165 0.023052001 0.11903418 -0.07430261
0003c0 59 cb 8a bc 9f bc 58 bd ce 45 19 3d 9b 22 b1 3c
       -0.016942667 -0.052914258 0.037420087 0.021622946
0003d0 3b 2e 80 bd 38 ab d8 bd 12 4a f6 bc 3c 43 53 3d
       -0.06258818 -0.105795324 -0.030064616 0.05157779
0003e0 7e 23 c2 bd 7f 8a 53 3d d2 08 b8 3c 04 05 0d bc
       -0.09479426 0.051645752 0.022465143 -0.008607153
0003f0 b0 15 13 3e 0d e6 d9 bb d4 d4 5a bd a7 01 df bc
       0.14363742 -0.0066497386 -0.053425625 -0.027222468

mean_linear.weight f4 [2, 256]
000000 47 0c 6f 3c 83 0e 2c bd d4 0f 82 bd 3e 46 0a 3e
       0.0145903295 -0.042006027 -0.06350675 0.13503358
000010 4c d9 13 bd bb 75 cd bc 96 95 eb 3b 1e 53 69 3d
       -0.036095902 -0.025080552 0.007189463 0.056964032
000020 72 02 cc 3d 0c a2 f9 bc 27 e1 0c 3d a8 e3 5d bd
       0.09961404 -0.030472778 0.03439441 -0.054172188
000030 0a 5f 63 3c f7 a3 6f bc 65 a0 4a bc 5c 21 5b bd
       0.01387764 -0.014626495 -0.012367343 -0.05349861
000040 b5 5d 9e bd 08 67 50 3e a8 c7 7a 3c e0 d9 e8 bc
       -0.07732717 0.20351803 0.015306391 -0.028424203
000050 ab 25 25 bd f9 4f d2 bd 43 3e 44 3d 9c 02 03 be
       -0.040319126 -0.1026916 0.04791094 -0.12793964
000060 7c b6 a3 bd 4d 2e 90 3f 00 49 4e 3b 8b 07 b3 bc
       -0.079937905 1.126413 0.0031476617 -0.021854183
000070 76 8c 29 3d 62 f0 4c 3d 86 5d 37 3b 1b 4c 5f 3d
       0.04139372 0.050033934 0.0027979328 0.05451594
000080 23 9e 46 3d e8 dc 22 bd 17 08 7b 3d a3 33 89 bc
       0.048490655 -0.039761454 0.061287012 -0.016748255
000090 27 5c 0a 3d 29 db 17 3d 02 76 56 bd 80 31 10 3b
       0.03377929 0.03707424 -0.052358635 0.002200216
0000a0 e3 ef 66 3d a6 66 57 bd 45 ec 81 bd 5b 3a 21 3b
       0.056381118 -0.052588128 -0.06343893 0.0024601433
0000b0 f6 d8 15 bd fc 18 d9 bc 14 61 f4 3d 14 4e 04 3d
       -0.036583863 -0.026501171 0.11932579 0.032301024
0000c0 80 15 e0 3b 78 0d 58 3d 42 06 2f bd 84 34 16 3d
       0.0068385005 0.05274722 -0.042730577 0.036671177
0000d0 ae d0 a6 3d e4 98 8b 3d 3b 2c 9c 3d b9 f7 a9 bd
       0.08145271 0.06816271 0.07625624 -0.082992025
0000e0 0c 88 53 bd 2a 70 bc 3c c2 b3 0b bc c6 fa 02 3f
       -0.051643416 0.023002703 -0.008526744 0.511639
0000f0 2a a7 3e bd e0 4f 65 3d 6d e9 67 bd ed e9 a4 3d
       -0.04654614 0.055984378 -0.056619097 0.0805243
000100 3e 7e 74 3c 8a 86 72 bb 8e 14 d6 3e 3c b3 29 bd
       0.014922677 -0.003700646 0.41812557 -0.041430697
000110 17 1f e1 3c 69 90 1e bd 8f 57 88 3e 3c 25 16 bd
       0.027480645 -0.03871194 0.26629302 -0.036656603
000120 0e b1 81 3d 38 94 78 3d 44 9b df 3a dc d3 53 3e
       0.063325986 0.060688227 0.0017059823 0.20686287
000130 1e ef 87 3e e9 fb e9 bd 2b 8d d1 3b d2 bf 90 bc
       0.2654962 -0.11425001 0.0063950024 -0.017669592
000140 4d 2f 13 3d b6 86 97 ba 4f 1b 8b bd 36 6f 5f bc
       0.03593378 -0.0011560533 -0.06792318 -0.013637355
000150 dc 6b 97 bc 25 16 89 3c 5c 3a 87 be d0 e5 c6 3c
       -0.018484049 0.016734192 -0.26411712 0.024279505
000160 87 61 5d bd 51 79 65 bd 76 32 02 3c 7d 96 24 bd
       -0.054048087 -0.0560239 0.007946601 -0.04018258
000170 5a c9 49 bd 6e f9 24 3d 13 88 e4 bc c3 e3 86 3d
       -0.04926429 0.040276937 -0.027896916 0.06586411
000180 43 6f 10 bd de 63 3c 3d 06 49 5b 3d 01 bd 02 bd
       -0.035262357 0.04599368 0.053536437 -0.03191853
000190 22 6f 59 bb af 83 30 ba 83 d5 36 bd f4 f2 ea bc
       -0.0033177813 -0.00067334896 -0.044637214 -0.028680302
0001a0 5c ea 74 bd 14 b1 ab 3c c0 1b 0b bb 82 f8 d7 3b
       -0.059793815 0.02095846 -0.0021226257 0.0065909037
0001b0 ed 64 19 bc 95 a3 42 bd 96 6c 06 3d 02 f8 f3 bd
       -0.0093624415 -0.047519285 0.0328184 -0.11912538
0001c0 11 83 01 bd f0 8c 23 bc e0 e3 cb bc b7 ab 7a bd
       -0.031619135 -0.009982333 -0.024888933 -0.061198916
0001d0 69 39 8b 3d ae 95 90 bc 33 41 65 bc 34 9f 25 3d
       0.067980595 -0.017649498 -0.0139925955 0.04043503
0001e0 f2 d0 bd ba 48 a6 2e bd 5b c5 a5 3c a5 3c 15 3e
       -0.0014481826 -0.042639047 0.020235708 0.14573915
0001f0 3c d9 c4 bc 14 72 3b bb d6 8c ce 3c b0 da 3d 3d
       -0.024029367 -0.0028601931 0.02521364 0.046351135
000200 89 18 02 3d 6f c6 4e 3d c0 6b ba bb 5c ba 41 39
       0.03176168 0.05048221 -0.0056891143 0.00018475339
000210 5c d4 8e 3c a8 fd ee 3c b6 89 44 3d 87 c7 2a bc
       0.017435245 0.029173687 0.047982894 -0.010423548
000220 54 84 16 bd 2d bc 09 bd 28 79 e2 bd 16 e1 ce bd
       -0.03674729 -0.033626724 -0.11058265 -0.101015255
000230 12 58 8b bc df 0c a1 bb c1 a8 47 bd 53 b7 3b bd
       -0.017009769 -0.0049148644 -0.04874492 -0.04582913
000240 07 93 3c 3d 40 f6 9f bc e2 1f 3a 3e 6b 7c 8e bc
       0.046038654 -0.0195266 0.18176225 -0.017393311
000250 5d 77 a1 3d 9f 2e 02 bd ec 7c 60 bd 58 ff 09 3e
       0.07884095 -0.031782743 -0.054806635 0.13476312
000260 fe 9e 32 bd 10 56 60 bd 85 e8 a0 bc f6 b1 9a 3b
       -0.043608658 -0.054769576 -0.019642124 0.0047209216
000270 e7 c2 b9 bd 77 1e cc 3c b9 26 1a bd 15 dc 13 3e
       -0.09070378 0.02491687 -0.037634585 0.14439423
000280 dc 28 ee bc 68 be de 3c 6c d1 89 3d 90 02 c1 3c
       -0.029072218 0.027190402 0.06729397 0.023560792
000290 37 13 41 bd 77 f2 9f 3c 2f f5 92 3c c6 21 dc 3c
       -0.047137465 0.019524796 0.017939178 0.026871573
0002a0 0e e3 e6 3c 18 b3 20 3c a8 f7 33 bd b8 35 b3 3d
       0.02818444 0.009808324 -0.043937355 0.087504804
0002b0 81 97 ec bc fc 55 8a bc 53 45 11 3d 1a 46 71 bd
       -0.028880836 -0.016886704 0.035466503 -0.058904745
0002c0 f2 70 0f 3d 32 d9 95 3e 8f 2a d0 bc 98 08 91 3e
       0.035019822 0.2926727 -0.025410919 0.2832687
0002d0 8a c6 27 bd e0 a0 9b 3e d1 5f b6 bd 12 00 72 bd
       -0.040960826 0.30396175 -0.08904994 -0.0590821
0002e0 a1 27 b1 3c e6 37 58 3d c6 f6 f8 3d 54 2d f8 bc
       0.021625342 0.052787684 0.12156443 -0.030295052
0002f0 b0 a7 63 3d 5a e5 52 bd d3 06 8a bb dc 66 cb bc
       0.05557984 -0.051488258 -0.0042122393 -0.02482932
000300 fa 45 44 3d 2f ca 22 bc 64 cb e3 bc 46 04 61 bd
       0.047918297 -0.0099359 -0.027806945 -0.054935716
000310 b0 8e 37 bd 67 5e c5 3c 6b e4 41 3d 78 c7 39 bd
       -0.04481381 0.024092866 0.047336977 -0.045356244
000320 13 87 17 3f 1d 8a f6 3c c3 d3 20 3d 05 b5 8d 3a
       0.5919048 0.030095154 0.03926445 0.0010811394
000330 0a fb bc 3c 81 f4 2c 3d 64 37 e8 bc 4b 8a 50 bb
       0.023068924 0.042225365 -0.028346725 -0.003182071
000340 36 c9 03 3d fb 8e 34 bd 52 41 ac 3d 91 15 08 bd
       0.03217431 -0.04408167 0.08410896 -0.033223692
000350 11 66 d1 3b 42 75 a8 bc dc 79 cd 3e 72 99 c6 bd
       0.006390341 -0.020563725 0.40132034 -0.09697236
000360 55 65 fb 3a 2c b9 77 bd 36 ec 18 bd 0f 1f 6b 3d
       0.001917998 -0.060479328 -0.037334643 0.057402667
000370 8f 07 08 3d 2f 70 01 bc 1f a8 19 bc 50 ec 38 3d
       0.033210333 -0.007900282 -0.009378462 0.04514724
000380 d1 77 1a 3e 54 54 a2 3e b3 0d 63 3d 2a 4a 1a bd
       0.15084769 0.31704962 0.055432986 -0.037668385
000390 c1 d1 71 3d e0 1e 54 bc c0 c5 8e bc 8e 9c 4f bb
       0.059037928 -0.012946814 -0.017428279 -0.0031679007
0003a0 40 1c 66 bc 5a bc 73 bd dc 2b 31 bc 32 89 05 3c
       -0.014044821 -0.059505798 -0.01081368 0.008150386
0003b0 df 3b 64 3d f3 dc 20 3d 74 de 74 3d d0 59 d3 3d
       0.05572116 0.039273214 0.05978246 0.10319865
0003c0 8e 71 dd 3a c8 97 31 3d 72 8a 40 3d 5b ff fb 3b
       0.0016894804 0.04335764 0.04700703 0.007690353
0003d0 85 08 2c 3d 23 ea 17 bc 67 d1 50 3e 31 c0 d9 3c
       0.042000312 -0.009272131 0.2039238 0.026580902
0003e0 d8 c9 74 3d 79 27 6f 3c 3a 98 71 bd 33 4e 9e bc
       0.059762806 0.014596813 -0.058983065 -0.019324398
0003f0 9a 9f c7 3d cb 67 c7 bc 18 46 54 3d 44 37 10 3e
       0.097472385 -0.024341485 0.05182466 0.14083582

mean_linear.bias f4 [2]
000000 d7 49 b5 bd 04 31 bd 3d
       -0.088519745 0.092378646

log_std_linear.weight f4 [2, 256]
000000 92 28 80 3c c9 7b 31 bc c5 cd d6 bc f6 34 59 3c
       0.015644345 -0.010832735 -0.026221165 0.013257256
000010 51 71 fb 3c da 05 25 bd 02 e0 b8 3c a0 3b c9 3b
       0.030693682 -0.040288784 0.022567753 0.006141141
000020 8f 6a 31 3e 10 d9 57 3c b2 fb 03 bd a2 10 8c 3c
       0.17325805 0.01317431 -0.032222457 0.017097775
000030 ba 46 e1 bd 57 a7 64 3c 5c 41 fc bb 3b ce 3f bb
       -0.10999818 0.013955913 -0.007698221 -0.002926721
000040 cd 51 a8 be f4 68 81 bb c0 8b 8d ba 64 8a 0a bd
       -0.3287491 -0.003949279 -0.0010799095 -0.033823386
000050 30 05 33 bd b3 80 0b bd 3e dd b3 bd 2e 92 36 bd
       -0.04370612 -0.034058284 -0.08782433 -0.044573
000060 4a 06 b5 bc 95 a7 c0 3c 70 83 7b bd 60 ca bb bc
       -0.022097725 0.02351741 -0.061404645 -0.022923648
000070 cc 5f 67 bb 95 42 dd bc f0 17 05 3d d4 d1 4c bb
       -0.0035304902 -0.027009288 0.03249353 -0.0031252997
000080 ab 00 59 3d e3 27 19 bb d6 f7 50 ba e4 5b 27 3d
       0.052979153 -0.0023369722 -0.0007971501 0.040859118
000090 05 9f de bc 24 7b 55 3d d9 56 e1 3a 02 37 3d 3d
       -0.027175436 0.05211939 0.001719202 0.046195038
0000a0 23 9d 46 3d 7e 3c 17 3d ee 6c dc bc 2a 9f 5c bc
       0.0484897 0.036922924 -0.02690741 -0.013465682
0000b0 40 4e 31 3d 7b 82 23 3d e0 14 e4 bc 9a e4 25 bd
       0.043287516 0.039919358 -0.027841985 -0.040501215
0000c0 40 aa af 3a 48 e9 4c bc 33 46 f1 bc c2 68 46 bc
       0.0013402179 -0.01250679 -0.029452419 -0.012109937
0000d0 cc bd 11 be ca b5 4c 3c d4 20 fa 3c a1 6d b7 3c
       -0.14232558 0.012494514 0.030533232 0.022391142
0000e0 45 ed 5f bd 29 cb 2c bc cc 76 8b 3c 7a 0e d3 bc
       -0.054669637 -0.010546484 0.01702442 -0.025763739
0000f0 26 f5 12 bd 4a a4 3d bd c2 3b 98 3c 67 08 0f 3d
       -0.035878323 -0.046299256 0.018583182 0.034920122
000100 a5 e5 94 3e 6d 35 40 3d b9 4b e7 bc da 52 34 bd
       0.29081455 0.04692595 -0.02823435 -0.044024326
000110 78 8d 33 bc 4e 60 4a bc 0c 4b 22 3b 23 15 10 3d
       -0.010959022 -0.012352062 0.002476397 0.035176408
000120 bf bb 48 bd 1f 85 33 bd 84 37 10 3c c5 79 94 bd
       -0.049007174 -0.043828126 0.008802298 -0.07249788
000130 5d 11 5e bc dd d9 1c bd 80 e4 6c bc 0b 49 b0 bc
       -0.013553944 -0.038293708 -0.0144587755 -0.021519205
000140 8b 51 e5 bc 2a 17 7e bd b1 8c 5e bd 95 d6 1f bb
       -0.027992984 -0.06203381 -0.054333393 -0.0024389375
000150 d4 fc 42 bd 3c 3c 93 bb df 58 62 bd 46 5a 3d bd
       -0.047604397 -0.0044932645 -0.055260535 -0.04622867
000160 23 a5 87 3d be b9 27 bb da d6 6d bd f7 eb 12 bc
       0.06623294 -0.0025592889 -0.058066227 -0.008967391
000170 75 56 38 bc dc b5 ed 3c d3 81 44 bc 89 c2 8b be
       -0.011251082 0.029017381 -0.011993843 -0.27296856
000180 8a ed ad bc b8 e3 18 bd 8e 99 92 be 8c 4f 05 3d
       -0.021231432 -0.037326545 -0.28632778 0.032546565
000190 00 d4 fa bc f5 ee 3b bc 4a 52 82 3c 8e ee 38 3d
       -0.030618668 -0.011470546 0.01590838 0.04514938
0001a0 a0 87 7e bd d0 ed 83 bb bc 8d 50 bd 7f ea bf bb
       -0.06214106 -0.004026152 -0.05091642 -0.0058568115
0001b0 e6 80 74 bd ee 5b a7 3c 9d 7d 13 bc 70 df 3c bd
       -0.05969324 0.020429578 -0.0090021165 -0.046111524
0001c0 d7 00 96 3a 00 3d af 3a 71 37 26 bc 56 e4 76 bb
       0.0011444342 0.001336962 -0.010145054 -0.003767272
0001d0 b9 bd 03 3d cc 1e e6 bd 7a 19 45 3c ce 0e 5d bd
       0.032163355 -0.11236343 0.01203 -0.053969197
0001e0 12 6b 0c bd d3 d9 1f 3c 57 50 e4 bc 0c d6 0e bd
       -0.034281798 0.009756523 -0.02787034 -0.0348721
0001f0 9d 3f 2b bd d4 c0 00 bd 18 48 2d ba 60 08 78 bc
       -0.041808713 -0.031433895 -0.0006610169 -0.0151387155
000200 75 48 8c 3c 6d 24 3a bd 44 af 72 bd 9b e2 88 bc
       0.017124394 -0.045444895 -0.059249178 -0.016709616
000210 fc 2a cd 3c dd 68 e8 3c 32 d3 7f 3d 7c f3 e5 bc
       0.02504491 0.028370315 0.06245727 -0.028070204
000220 a4 bf c7 bc 7e b6 93 bd 8b 8e e0 bb ee 1e 46 bd
       -0.024383374 -0.07212542 -0.00685293 -0.04836934
000230 9d 3d d2 3b 78 1f c3 3c 7d fe 5e bd 76 ca 3f 3d
       0.0064160363 0.023818716 -0.054441918 0.04682394
000240 94 e2 31 3d 17 65 dc 3c 6f 01 b8 bd 47 b4 89 3c
       0.043428972 0.026903672 -0.089846484 0.016809596
000250 a1 5d a0 3e b5 22 e5 bc 2c 2f 0f bc 49 85 29 bd
       0.31321433 -0.027970651 -0.008739274 -0.041386876
000260 e9 5f 3d bd a1 66 f3 bc c0 36 37 bd e4 ea 09 3d
       -0.046234045 -0.029712023 -0.044729948 0.033671275
000270 60 87 07 3d 93 f3 26 bd 7b 35 17 bc 71 8f 9e bd
       0.033088088 -0.040759634 -0.009229059 -0.07742203
000280 01 15 34 bd e6 f4 17 bd a3 81 21 3d c4 11 8d bc
       -0.043965343 -0.037098788 0.03943027 -0.017220385
000290 4f e3 38 bd 0a 73 0d bd 79 a6 bb 3c 54 ff 0e 3c
       -0.045138653 -0.034533538 0.022906529 0.008727867
0002a0 07 ed 8a 3c 05 87 12 3d 2b 38 06 3c da a9 1b bd
       0.016958727 0.035773296 0.008192102 -0.03800378
0002b0 2b aa b7 3c 93 51 0b bd a9 0b 77 3c 78 49 d6 3c
       0.02242001 -0.034013342 0.015078464 0.02615808
0002c0 be 12 5e 3d b6 0c a3 bd 3a cc 0d 3c bc 71 32 3d
       0.054217093 -0.07961409 0.008654648 0.043565497
0002d0 3a 76 62 3d cd 0d ae 3d ac e1 2e 3c 38 87 3a bd
       0.05528853 0.08498726 0.010673922 -0.04553911
0002e0 61 f5 99 3c 78 43 84 39 4b 43 98 3d 49 ca 0f bc
       0.018793764 0.0002522727 0.0743471 -0.008776256
0002f0 04 ed 84 bc 26 c3 6e 3d 91 45 ac bc 45 32 fb bb
       -0.0162263 0.058291577 -0.021029266 -0.0076659047
000300 34 80 4c bc 82 d8 b3 3c 91 fc a7 bb eb 2b 9b 3b
       -0.012481738 0.021953825 -0.005126544 0.00473546
000310 f6 d7 08 3d 16 02 ae bc 68 82 a4 3c 50 d3 fa bc
       0.03340908 -0.021241229 0.020081714 -0.03061834
000320 a5 12 3a be c7 4e 4b ba 60 8e 8a bb 9d ff ee 3c
       -0.18171175 -0.0007755574 -0.004228398 0.02917462
000330 e2 ba 4a 3d b6 53 ff bc 7d 11 ca 3c c2 66 b8 3b
       0.04949463 -0.031167846 0.024666542 0.005627484
000340 18 11 3e 3b f7 c5 93 bc 45 85 18 bc 97 1b e6 bb
       0.0029001888 -0.018038733 -0.009309118 -0.007022332
000350 4b 15 d2 bc 50 f9 e6 3c 18 07 3d 3e eb b5 c2 3b
       -0.025644919 0.028195053 0.18459737 0.0059420965
000360 f8 67 46 3c 7a 8c 3b 3d 3b 41 20 3d 1a 02 4e ba
       0.012109749 0.045788266 0.03912471 -0.00078585895
000370 3e 95 87 3d 37 a7 2d bd f2 ef 4b bd f0 04 d9 3c
       0.066202626 -0.042395797 -0.049789377 0.026491612
000380 2a e2 0f 3e a1 f9 a7 bd f8 df 9e bb 6f ed 6f bb
       0.14051118 -0.0820191 -0.0048484765 -0.0036610027
000390 22 95 6a bc 06 b3 f4 3c f6 d0 82 bc da 94 27 bd
       -0.014317783 0.029870521 -0.015968781 -0.04091344
0003a0 b9 39 21 bd 94 bf 2d bd 1a c7 63 bc 8f 77 22 3c
       -0.03936169 -0.04241903 -0.01390245 0.0099162
0003b0 39 86 45 bc 9f 8f cd bc 3d 8e aa bc c2 29 89 3a
       -0.012055927 -0.025092898 -0.020819778 0.0010464715
0003c0 d3 1e 50 3c 5b 5b b4 3b 84 c2 c7 3c 5b b2 90 3c
       0.012702662 0.0055040545 0.024384744 0.017663172
0003d0 64 52 3f bd 88 39 b5 3c 13 f4 c2 3c c1 23 85 bb
       -0.046709433 0.02212216 0.023798024 -0.0040631
0003e0 49 2d 58 3e d2 ee c6 bb 32 ac 03 3e 59 82 66 3d
       0.21111025 -0.00607095 0.12858656 0.056276653
0003f0 5f f9 1a bd 8f 35 81 3c 90 9e 0c bd 19 b7 cb 3e
       -0.037835475 0.015772609 -0.034330904 0.3978813

log_std_linear.bias f4 [2]
000000 57 4f e4 bd 6b 60 03 be
       -0.111479454 -0.1282975
