sac_policy_vanet.pth (torch, 275692 bytes, 8 tensors)

fc1.weight f4 [256, 4]
00000000: 089d d8be 111d d63e be61 d7be 2bc2 613e
00000010: 5688 463e ccca 363e 6dd7 b4be 4e4f 24bc
00000020: 7bb5 153e f99c 09be f2d3 a7bd 016a d03c
00000030: c27c a33e 1d89 dc3e 54e8 5f3d 49f4 a83e
00000040: 949a 923e 105f 44bd 74de 4fbe dc4d 01be
00000050: c8d2 b1bd 982c a03d 7075 42be 5053 92be
00000060: 216a 8dbd 90c4 593e 9cc4 8e3d adf6 243b
00000070: ee47 84be 90e6 293e 30d3 5fbd 27b5 193e
00000080: f078 3e3e 84cf d4be 545a c1be 42f0 e8be
00000090: 13d7 393e 6d8e 823e f570 d53e e230 243d
000000a0: 1239 8cbe a22a b8be dc82 6abe 162e 8fbe
000000b0: c71b 943e f945 32be 2e45 c73e 8f0b dd3e
000000c0: f86b bbbe 20f7 aebc 58a9 bcbe 501c 94be
000000d0: 954f c1be 2ce5 61be f5b6 913e fc8c 8d3e
000000e0: 773a 193d affe a03e 1620 8bbe 1db8 f83e
000000f0: 372f 9e3e a625 b4bc 340f fd3e 6c54 5f3d
00000100: 749d d2be 9a10 853e b4e4 fabe 80d1 aebe
00000110: 50d6 8f3d 847d 8bbe f8a8 a9be 8033 22bd
00000120: 8cac 1b3e 7040 0dbe bc2b acbe 389e 5ebe
00000130: d240 85be 80dd 263c 6029 a6bd 6049 e3be
00000140: dba3 0ebe e088 2dbe 70ce bf3e f12b f93e
00000150: 0488 333e 3dec 0b3e 9bf5 e2be 048d 12be
00000160: 405b b1be c0e7 51bc 5a4c 973e a01a dbbd
00000170: 563f 92be fc79 9bbe a84f de3e ce5b 83be
00000180: d4cc 31be f48d 8bbd 9dbc ed3e f505 1b3d
00000190: c13a eb3e dac3 653d 2bc0 61be c3ac 5f3e
000001a0: 0393 cf3e 52f9 0a3d 6436 d53e 530e fe3d
000001b0: 6898 8e3e 1c74 1a3e 28f8 2ebe 5c0b 6abe
000001c0: 58a9 913d 40c5 c6bd eeb5 9cbe 867d 97be
000001d0: 9921 a13e a2bf ee3e a978 a03d 4cdb 863e
000001e0: 06fc 943e 5479 803e c76f cc3e 0544 18bd
000001f0: 40be 723e 3c2e 78be 7432 c7be c847 43be
00000200: cc39 75be 7824 cb3e 1b4a 483e 3021 51bd
00000210: 3fc7 19be 516f dabe 7dff 98bd d381 e43e
00000220: 52dc 973e f8e8 e73d 0c9c 6cbe 4c86 4abe
00000230: 7c53 9dbe ccb5 87be 7a01 893e e00e e5be
00000240: 9534 f0bc 0a8c f9bd 983e 9ebe 9bfb 683d
00000250: 4904 2ebe 0a57 ac3e 317d 113e 0364 22bb
00000260: 99b4 803e e877 ebbe 39e3 fb3e d699 d33e
00000270: 8556 1ebe 65f8 72be 2deb 2d3e 4fa1 503e
00000280: a170 f13d 96fd ee3e 9dd1 c73e 7000 673e
00000290: 7a39 b93e 2dda e6be 75a9 a33e 65a4 363d
000002a0: 27ed 433e 3043 c33e cb8b a73e 84b3 5a3e
000002b0: a604 c43e 3f6f ef3e a601 2bbe f85d 92be
000002c0: 3933 8abe 3bb2 a93e 4a17 32be 03a2 6a3d
000002d0: 24f7 803e 9159 32be 36f4 64be f72b b93e
000002e0: e3e8 be3e 1f1e e93e 4066 bbbe 871d 92be
000002f0: 03b6 3d3d 220a 45be 8c5a 93be f5fd f53e
00000300: 9454 563e 5c10 30be 0eb9 87be 747c 2dbe
00000310: c08d 613e 14ca d3be 0482 f03e bec3 91be
00000320: 8140 29bd 8462 ce3e f59f 5e3e 73ec 563d
00000330: b4eb babe fe47 b5be 3222 ae3e f41d 8ebe
00000340: b59d c5be c446 d0be 8cf8 1cbd 0463 e23d
00000350: a52e ea3e 8952 a03e 054f de3e 9af0 ef3e
00000360: bf5b 02be b7d6 9cbe 69e5 993d 75b6 6e3e
00000370: 0812 c63e a18a 813e aa41 63be 64d0 ebbd
00000380: abe1 4a3d 2d26 d4bc 6b76 98be 813e d23e
00000390: ae38 a43e 54d6 36be 803d d23e 5d2f fb3e
000003a0: bb1e bc3e 8caf b83e 7097 1b3d 1df1 133e
000003b0: ade6 8cbe 2530 623d 9b5c 70be c1ce 843e
000003c0: 126d b63e 7693 b93e 6c7c 883e 21dd 38bd
000003d0: bef6 ffbe 43b7 ffbd 2388 2c3e e115 fb3d
000003e0: 4290 dabe ec6d 06be 6822 403e 4e01 bcbe
000003f0: 6fba d03e 9628 ae3e fc6a c93e f3d4 b4be
-0.42307305 0.4181905 -0.4206676 0.22046725 0.19387946 0.17850798 -0.35320607 -0.010028673
0.1462001 -0.13438787 -0.08194722 0.025441172 0.3193112 0.4307336 0.054664925 0.32998875
0.2863356 -0.04794222 -0.20299703 -0.12627357 -0.086827815 0.078210056 -0.18990111 -0.28579187
-0.06905008 0.21266389 0.06971094 0.0025171444 -0.25836128 0.16591859 -0.054644763 0.1501051
0.18600821 -0.41564572 -0.37764227 -0.45495802 0.1814845 0.25499287 0.41687742 0.04008568
-0.2738729 -0.35970026 -0.22901481 -0.27964848 0.28927442 -0.17409505 0.38919967 0.4317288
-0.3660581 -0.021358073 -0.3684795 -0.2892785 -0.3775603 -0.22060078 0.28459898 0.27646625
0.037409272 0.31444308 -0.27172917 0.48577967 0.30895397 -0.021990608 0.49425662 0.05452387
-0.41135752 0.25989228 -0.49002612 -0.3414421 0.07023299 -0.27244198 -0.33136725 -0.039599895
0.1520254 -0.13794112 -0.33627117 -0.21740043 -0.26026016 0.010184646 -0.081133604 -0.44391918
-0.13929693 -0.16946745 0.37462187 0.48666337 0.17532355 0.13664337 -0.44328007 -0.14311606
-0.3463993 -0.012811601 0.2955044 -0.10698438 -0.28563946 -0.30366504 0.43420148 -0.2565598
-0.17363292 -0.06814185 0.46432963 0.037847478 0.45943263 0.05609498 -0.22045963 0.21843247
0.4054185 0.033929177 0.4164306 0.12405076 0.27850652 0.15083355 -0.17086852 -0.22855896
0.07112378 -0.09705591 -0.3060755 -0.29587954 0.31470945 0.4663058 0.07835514 0.26339185
0.2909853 0.25092566 0.3992903 -0.037174243 0.23705387 -0.24236387 -0.3890568 -0.19070351
-0.23947829 0.3967626 0.19559519 -0.05105704 -0.15017413 -0.42663053 -0.074706055 0.44630298
0.2966028 0.11323732 -0.23106402 -0.19777793 -0.30727756 -0.26505888 0.2675894 -0.4473791
-0.029321948 -0.121849135 -0.3090713 0.056880575 -0.16993822 0.33660156 0.14207913 -0.002477885
0.25137785 -0.4598992 0.49196795 0.41328305 -0.15462692 -0.23727567 0.16984244 0.20374034
0.117890604 0.46677846 0.3902711 0.2255876 0.36176664 -0.4508833 0.31965223 0.044590373
0.19133435 0.38137197 0.3272384 0.21357542 0.38284796 0.46764562 -0.16699848 -0.28587317
-0.26992205 0.33143792 -0.17391697 0.057283413 0.25188553 -0.1741698 -0.22358784 0.36166355
0.37287053 0.45530793 -0.36601448 -0.28538153 0.046316158 -0.19242147 -0.2878002 0.48045316
0.20930701 -0.1719374 -0.26508373 -0.16942006 0.2202673 -0.4136511 0.46974194 -0.28469652
-0.04132128 0.40309536 0.21740706 0.05247159 -0.36507952 -0.35406488 0.34010464 -0.27757227
-0.38596883 -0.4067899 -0.03832297 0.11054042 0.45738712 0.3131297 0.43419662 0.46863252
-0.12730311 -0.30632564 0.0751446 0.2331179 0.38685632 0.25301078 -0.22193018 -0.11514357
0.04953162 -0.02589711 -0.29777846 0.41063312 0.32074493 -0.17855197 0.41062546 0.49059573
0.36742195 0.36071432 0.03798622 0.14447446 -0.27519742 0.055221695 -0.23472826 0.2593899
0.3563009 0.36245316 0.26657426 -0.04513276 -0.49992937 -0.12486126 0.16848807 0.122600324
-0.42688185 -0.1312787 0.18763125 -0.36719745 0.40767238 0.3401534 0.39339435 -0.35318717

fc1.bias f4 [256]
00000000: ce0b f63e 27e3 023e 7cd1 01be 2cd4 91be
00000010: fc8e f43e 22b7 d03e 1389 d9be ba52 cebe
00000020: 006e 10be 0998 04be f634 973e fd12 01be
00000030: 663e de3e b8b2 873e a09f c9be c673 2cbd
00000040: 6840 8b3d 003b f33d e60f cf3e 52d5 87be
00000050: 5f5c 00bf 23ae 20be 7c42 76be 4c97 f23e
00000060: d100 23bd 17cd ef3e ffd0 d0be c4f1 023e
00000070: ee08 83be 0c0e ca3e 79a6 82be d0d3 83bd
00000080: c0a8 a6be 9a16 8f3e e06b 12be b830 41be
00000090: a36e eb3e 0d76 f03e 9b48 e73e e083 82be
000000a0: 0a1f d43e 5e18 003e 833b 0dbe 8be0 92be
000000b0: 71af 3ebe 4b48 c93e 7dc3 9a3d 1467 b83d
000000c0: b265 963e 2414 52be 771f f13e b414 f53e
000000d0: fd44 7c3e 1595 183e 7ca5 eb3e 5cc9 0cbe
000000e0: 470b d03e 1cb4 4bbe 9fbd dbbe af48 d73d
000000f0: 9697 8d3e f582 833e 084a a1bd aa2d fabe
00000100: d8df c3bd 256d e83e bf3d b3be 1921 ddbe
00000110: 2479 533b 94a9 933e 9760 fe3d 00bf d1bc
00000120: 6cad dbbe ec48 da3e 9abd babe 7e8b cabe
00000130: 0e4c c43e ec81 833e da84 f2be 5870 9b3d
00000140: 9cfa 0ebe 72f4 843e 706f e1be dedc a6be
00000150: 8b99 2b3e 6b72 ae3e bc2a 42be 7025 54be
00000160: 180b d7bd 5484 ed3e 622c e03e 8e07 00be
00000170: de6f b63d 3245 93be 3c08 8ebe f026 43be
00000180: f3e0 b83d 388b cf3d 22cb 9dbe c03e b4bd
00000190: 3437 b13e 9f94 b43e bfc6 dc3e b0f9 c03d
000001a0: 6fe7 483e 782d 353e a29d bebe 08e0 debe
000001b0: a432 c63e 421d f3be 54d5 b4be 7cf0 553e
000001c0: 7019 b53e b811 463e b0db 9b3e 27ce f4be
000001d0: 2605 ae3e d5c6 e6be 3450 f53e 1cee bebe
000001e0: 9eb7 073e 6206 99be 970c f83e ca86 153e
000001f0: 344e 5bbe 26fb bcbe b3f9 bebe 344b c83e
00000200: 80cc bdbd b3bc ad3d ff87 633d 94d8 933e
00000210: 90f8 763d fa52 c4be e7d6 a8bd 6bc4 713e
00000220: 3c15 86be 1e8e efbe 0ca2 8a3e b800 823d
00000230: 18e9 e2bd 824e b0be 8634 d93e e2d9 a8be
00000240: f410 743e 4519 1f3d d899 87bd 0012 09bb
00000250: 6fc8 e43e 645d ec3d 8010 853b c803 9ebe
00000260: dde4 803e 5888 eabe 8000 7abe 2689 48be
00000270: 62ed a3bc 1071 81bd 58d9 443e ed0e a73d
00000280: b644 bcbe 850c ed3e f59e 8b3e 4003 e6be
00000290: fcb1 1cbe 3572 a43d 7c91 82be 5a6c 8a3e
000002a0: 827a b7be ec2b c0be 974f f5be 83ed d53e
000002b0: 081a b43e ce8e 593e 5e92 b13e 9e41 01bf
000002c0: f35c 97be 8853 b23e a453 8dbe 3c87 f1be
000002d0: fa71 20be 1eb7 ef3e 1e51 cd3e e007 103d
000002e0: f044 06be d19c d13e 6c31 b93e b8bb c4be
000002f0: 8b90 9c3c 0c43 f53e e83f c33e c892 903d
00000300: e867 cdbe 4e9c f33e 7ae7 913e 0422 6dbe
00000310: bc14 9ebe 103d f83e 3a8a eabe 341a 1abe
00000320: f694 f13c 868d 98be b6ab 80be bea0 68be
00000330: f79b 9d3e 3446 26bd 43f0 cc3e 5052 4e3d
00000340: a068 913e ec07 b53e a014 533e b00f 3c3d
00000350: 4679 a33e c4ff b9be b029 7dbe c779 cf3e
00000360: 1d06 f03e c8c0 e83d 21ee 2e3e 90fa 38be
00000370: d1cd 183e aef5 dc3e d066 d9be 08a3 e63d
00000380: babf cabe 74fe df3e b02f b93d 9867 ab3e
00000390: 5119 6abe c0c4 233d 900e 6ebe d083 66bd
000003a0: 5229 563e e038 d13d 549d df3e 567d fb3e
000003b0: a06a 8b3e fbde 2f3e 705b e3bd 0d80 653e
000003c0: 802a c7bd e4bc b5be 22c0 a8be 6dee 52be
000003d0: 00e5 133d ed3b f1bc 29d5 443e 696e c03e
000003e0: 0d9a df3e f90e f7bc a0f1 94be 6a31 97be
000003f0: 58cd fe3d c495 49be e017 47be cd48 0c3d
0.4805588 0.12781964 -0.12677568 -0.28482187 0.47765338 0.4076472 -0.42487392 -0.4029749
-0.14104462 -0.12948622 0.29532593 -0.126049 0.4340698 0.2650354 -0.39379597 -0.042102598
0.06799394 0.11876488 0.40441817 -0.26529938 -0.5014095 -0.15691428 -0.240488 0.47381055
-0.0397957 0.4683616 -0.4078445 0.12787539 -0.2559275 0.39463842 -0.25517634 -0.064368844
-0.3255062 0.2794693 -0.14298964 -0.18866241 0.45982847 0.46965066 0.4517258 -0.25491238
0.4142993 0.12509295 -0.13792233 -0.28686938 -0.18621613 0.39312968 0.07556818 0.090040356
0.29374462 -0.20515496 0.47094318 0.47867358 0.24635692 0.1490062 0.46024692 -0.13748688
0.40633604 -0.19892925 -0.42918107 0.1051191 0.27654713 0.2568585 -0.078754485 -0.48862964
-0.09564179 0.4539577 -0.35008046 -0.43189314 0.003226825 0.28840315 0.12420767 -0.025603771
-0.42905748 0.4263376 -0.3647278 -0.3955955 0.38339275 0.2568506 -0.47366983 0.07589787
-0.13962787 0.25967747 -0.44030333 -0.32590383 0.1675779 0.3407167 -0.18961614 -0.20717406
-0.10500163 0.4639002 0.4378386 -0.12502882 0.08908056 -0.2876373 -0.27740657 -0.19057822
0.09027281 0.10133976 -0.3081904 -0.08801031 0.3461243 0.3526964 0.4312038 0.09422624
0.19619535 0.17693126 -0.3722964 -0.43530297 0.3871051 -0.4748326 -0.35319006 0.20892519
0.3537097 0.19342697 0.30441046 -0.47813532 0.33988303 -0.45073572 0.47912753 -0.37291038
0.13253638 -0.29887682 0.48447105 0.14602199 -0.21416551 -0.3691036 -0.3729988 0.39119875
-0.09267521 0.08483257 0.055549618 0.28876173 0.06029564 -0.38344556 -0.08244114 0.23610084
-0.26188076 -0.46788114 0.27076757 0.06347793 -0.11079615 -0.34434897 0.42422885 -0.3297873
0.23834592 0.03884246 -0.0662114 -0.002091527 0.4468417 0.1154125 0.004060805 -0.3086226
0.2517461 -0.45807147 -0.24414253 -0.19583568 -0.020010654 -0.06320393 0.19223535 0.08157144
-0.36771172 0.46298614 0.27269712 -0.44924355 -0.1530227 0.08029596 -0.2550162 0.2703579
-0.35835654 -0.3753351 -0.47912285 0.4178277 0.3517611 0.21245882 0.34681982 -0.5049075
-0.29563102 0.34829354 -0.27602875 -0.47173488 -0.15668479 0.46819395 0.4010095 0.03516376
-0.13112235 0.40939954 0.36170518 -0.38424468 0.019111892 0.47902715 0.38134694 0.07059246
-0.40118337 0.4758019 0.28496915 -0.23157507 -0.30875194 0.48484087 -0.45808583 -0.15049058
0.029489975 -0.29795474 -0.25131005 -0.22717568 0.30783054 -0.040594295 0.40027055 0.050371468
0.28400135 0.35357606 0.20613337 0.0459134 0.31928462 -0.36327946 -0.24722934 0.40522596
0.46879664 0.11364895 0.17083026 -0.18064332 0.14922263 0.4315619 -0.42461252 0.112615645
-0.395994 0.4374882 0.09042299 0.33477473 -0.2286122 0.039982557 -0.23247743 -0.05627805
0.209142 0.10215926 0.4367472 0.4911906 0.27229786 0.17174904 -0.11101425 0.22412129
-0.09724903 -0.35495675 -0.32959086 -0.20598765 0.036107063 -0.02944752 0.19221939 0.37584236
0.4367222 -0.030158507 -0.29090595 -0.29529887 0.1244151 -0.19686037 -0.19442701 0.034249116

fc2.weight f4 [256, 256]
00000000: f053 f6bc 80a3 00bc 8cd1 fdbc aaac 23bd
00000010: 3813 33bd 8c7c 6e3d 70a5 1ebc b8d4 9e3c
00000020: b209 793d 88eb 1a3c 3cd3 a73c 70c5 89bb
00000030: 747b 323d 0800 27bc e881 26bd 34a6 afbc
00000040: 08e7 b63c 701a 2ebc a8b9 6d3d 4097 6dbd
00000050: 3254 66bd d4cd 6d3d 64a5 d53c f4ac d6bc
00000060: cc1c 3fbd 8076 2d3d c023 3a3c 783d 21bc
00000070: 08bf ab3c 4c4f a9bc f035 7d3d c425 5f3d
00000080: 3863 88bc da1a 13bd 009b 44bd 78cf 49bd
00000090: 5876 0bbc a0b3 31bb 708f 1bbd 3450 7ebd
000000a0: 0423 2d3d 9637 6abd 80a2 4bba 1ccf f5bc
000000b0: 103a 6f3c a29c 69bd 7030 d3bc a232 05bd
000000c0: 8876 55bd a265 583d a095 7ebc ce60 5d3d
000000d0: f03b 6fbc b073 49bc 0c4c 27bd 2424 4cbd
000000e0: 4406 3cbd f034 febb 0849 ebbc 1212 7dbd
000000f0: 88c9 a63c 809e e2ba 1426 abbc 782d 143d
00000100: e05a f3bc 58c3 f13c b4c3 85bc 0cc4 d6bc
00000110: a29b 153d fec4 5f3d 689f 77bd 480f 55bc
00000120: 1e93 06bd 6033 43bd 3a8a 1ebd b070 e33b
00000130: 5c25 933c 9058 953c 100e d5bb 4ad1 6dbd
00000140: 5ce0 d1bc f672 0dbd 98ac 1fbc c69b 2c3d
00000150: f04f b33b 2206 333d 5214 04bd 92cf 5cbd
00000160: 4087 53bd 42a8 213d b0a0 d0bc 6a97 24bd
00000170: 58c6 3ebc caaf 37bd c07e bb3a 0016 da3a
00000180: d478 8b3c e0d4 6dbc 5ccc 9c3c faca 00bd
00000190: 0ce6 d4bc c0b7 ffbc 4069 a8ba 706c 923c
000001a0: 2092 a63b c8c8 453c cab0 4a3d e483 cabc
000001b0: 30af 31bc e89e 17bc 42e5 4b3d 4c07 d73c
000001c0: 0487 d03c d0b2 6dbc a661 76bd 3cd8 cf3c
000001d0: c0de 8ebb 2e4a 243d 7a44 2f3d 22a8 333d
000001e0: 16ba 6d3d f8d4 5d3c fec1 58bd 40b9 963b
000001f0: 40bf a1bb 58bb 85bc a456 3fbd 5ee8 53bd
00000200: 2e67 723d c840 fc3c 20ca 01bc c4af 953c
00000210: 4c35 8ebc 8048 1cbd b0d8 97bc c4e3 f83c
00000220: b007 cd3c 78fe dbbc 90dd 453c cab2 08bd
00000230: 20f2 34bc 562c 133d 60fb f13c 8828 743c
00000240: d410 5fbd b871 b03c 808e 85bb b074 9b3b
00000250: 6cb1 23bd c89f 353d f6f2 31bd 18c2 3b3c
00000260: 00f3 c83c def7 36bd 20b6 6b3c dacd 02bd
00000270: 100f a03b 8462 a3bc a476 24bd ae35 76bd
00000280: 200a 36bc 340c ebbc 801f 92ba a0dc 4abb
00000290: 7612 0abd 14d6 f8bc 0cfe 05bd 382a 233c
000002a0: 6e3a 2fbd 7653 12bd 9038 563d aafe 493d
000002b0: 20b7 2c3d 1a46 6e3d 306a dfbb a495 073d
000002c0: 40b3 0c3d 40b7 28bd b068 1e3c 86ca 253d
000002d0: d47d 6dbd 78dd f63c d41c 2a3d f064 84bb
000002e0: 4c74 083d 9042 25bc aced c0bc c86a e23c
000002f0: d61f 123d e83d 433c f01a ce3c 4480 593d
00000300: 0047 4abc 0002 1cbc 78ba 1f3c cc73 1abd
00000310: c046 bfba d0c3 0c3d d0be 413c 18d0 93bc
00000320: 1060 a3bc f863 1f3c 70d0 fabc d093 5a3c
00000330: 80fd 1d3b 2059 3a3b 1802 4e3d 4848 783c
00000340: 4ee8 36bd 5436 a1bc 6043 ad3c 1ad8 113d
00000350: 7c38 e03c 2402 253d 72cf 143d ca48 3abd
00000360: 3231 533d cc44 23bd 6870 c13c d268 7cbd
00000370: b008 edbb c8ee a9bc 4cfd 3b3d 4c27 fb3c
00000380: 60e8 59bd f4de 943c 740c dcbc 0472 d0bc
00000390: 90eb 58bc bae4 2a3d b027 3b3c 7006 633c
000003a0: d088 123c b6c8 393d 803e 733b 8040 193d
000003b0: 9c55 f63c 8ef0 243d 6ecc 313d 0e56 643d
000003c0: 2e40 5abd 5a44 2dbd 98a8 e7bc ec4f 60bd
000003d0: 08cb 0fbd 4007 c53a e444 503d 3cf4 d0bc
000003e0: 6ca1 1abd e86d 25bc 205e 173d e019 76bd
000003f0: ac2e d9bc fc65 f43c 2030 fcbb 328b 47bd
-0.030069321 -0.007851481 -0.030983709 -0.039959587 -0.0437195 0.058224246 -0.009682998 0.019388542
0.06080026 0.009455569 0.020486467 -0.0042044446 0.043574765 -0.010192879 -0.040651232 -0.021441557
0.022326961 -0.01062642 0.058038384 -0.05800557 -0.05623264 0.05805762 0.026079841 -0.026205517
-0.046658322 0.04234934 0.0113610625 -0.009841315 0.020965114 -0.020667695 0.061819017 0.054479375
-0.016648874 -0.03591428 -0.047999382 -0.049270123 -0.008512102 -0.0027115121 -0.03797859 -0.062088206
0.04226972 -0.057181917 -0.000776805 -0.030005984 0.0146012455 -0.057034142 -0.025779933 -0.03251899
-0.052114993 0.0528313 -0.015538603 0.0540474 -0.014601693 -0.012295648 -0.04084401 -0.049839154
-0.045904413 -0.0077577755 -0.028721347 -0.06178481 0.02035977 -0.0017289668 -0.02089218 0.036176175
-0.029706419 0.029512092 -0.01632867 -0.02621653 0.036525376 0.054631226 -0.060454756 -0.013004132
-0.032855146 -0.047656417 -0.038706042 0.0069409236 0.01796215 0.018230706 -0.0065019205 -0.05806092
-0.025619678 -0.034533463 -0.009745739 0.042140745 0.005472176 0.04370702 -0.03224594 -0.053908892
-0.051642656 0.039467104 -0.025467247 -0.040183462 -0.0116439685 -0.04484538 0.0014304742 0.0016638637
0.017025389 -0.014516085 0.019140415 -0.031443574 -0.025988601 -0.031215549 -0.001284875 0.017873973
0.0050833374 0.012071796 0.049485005 -0.024721093 -0.010844991 -0.009254195 0.049779184 0.026248597
0.025455005 -0.014507964 -0.06015172 0.025371663 -0.00436005 0.040109806 0.042789914 0.043861516
0.058038794 0.013539545 -0.05291938 0.0045997202 -0.004936129 -0.016324684 -0.046713486 -0.051735274
0.05918043 0.030792609 -0.0079217255 0.018272288 -0.017359398 -0.03815508 -0.018535942 0.030382045
0.02502808 -0.026854739 0.01207675 -0.03337363 -0.011044055 0.035930954 0.02953881 0.0149022415
-0.054459408 0.0215386 -0.004075825 0.004744135 -0.039964125 0.044341832 -0.043444596 0.01145985
0.024529934 -0.04466998 0.014386684 -0.031934597 0.004884608 -0.019944437 -0.040152207 -0.060109787
-0.011110812 -0.028692342 -0.0011148304 -0.0030954257 -0.033709012 -0.030375518 -0.03271298 0.009958796
-0.042780332 -0.035724126 0.052300036 0.049315132 0.04216683 0.058172323 -0.0068180785 0.033101693
0.034350634 -0.041190386 0.009668514 0.040476345 -0.057981327 0.030134901 0.0415314 -0.004040353
0.033314034 -0.0100866705 -0.02355083 0.027638808 0.035674892 0.011916615 0.02515933 0.05310084
-0.012346029 -0.009521961 0.009749047 -0.03770809 -0.0014593229 0.03436643 0.011825278 -0.018043563
-0.019943267 0.009728424 -0.030616969 0.013340905 0.0024107397 0.002843447 0.050294966 0.015153952
-0.044655137 -0.019679226 0.021150291 0.03560648 0.027370684 0.040285245 0.036330648 -0.045479573
0.05156059 -0.03986053 0.02361317 -0.061623402 -0.0072337016 -0.020743743 0.04589586 0.030658387
-0.053200126 0.018172719 -0.026861407 -0.025444992 -0.013239756 0.041722037 0.011423036 0.013856515
0.008943751 0.04535743 0.003711611 0.037415028 0.030070119 0.040268473 0.04340785 0.05574613
-0.053283863 -0.042301513 -0.028278634 -0.05476372 -0.035105735 0.0015032068 0.05084695 -0.025507085
-0.0377516 -0.0100970045 0.036955 -0.06008327 -0.026511513 0.029833786 -0.0076961666 -0.04871673

fc2.bias f4 [256]
00000000: 60cb 023c d061 133d be9c 02bd f452 d43c
00000010: d4f8 8a3d 5a1f 0abd 2071 59bd c948 92b9
00000020: 7e42 75bd fae3 1e3d 29f5 053d 2068 5fbc
00000030: 567f 073d 7e8e 573d b631 1b3b 58d0 57bd
00000040: 9476 173d 8757 3bbc b6fd beba cfaf 9d3b
00000050: 7833 21bd 2d70 003d 79d1 8d3b c431 dfbc
00000060: 04d7 9b3c d4cb 1abb 96ad 4dbd b319 553d
00000070: 1c77 0c3d c281 c1bb ae51 22bd f191 8c3c
00000080: d0c7 28bc 85a4 983c 2c37 84bc 0429 09bd
00000090: 25d2 083c 48cb ee3c 6e55 67bd 406d 413c
000000a0: 1f7d 02bc c82b 953c ccc3 d03c 4cb3 423d
000000b0: a676 0f3b 186f ae3c 84a7 eb3c 060a 27bd
000000c0: 9899 16bd 0c80 463d 7ff8 593d 504d 7cbc
000000d0: 9e51 383d 2539 47bd 91bd 91bc 3af6 33ba
000000e0: 5041 03bd b517 443b 0945 3e3b 92ae 793d
000000f0: 00e7 173b 2a93 b53c 6278 5e3d 4eb1 4d3d
00000100: c3ad 67bd 848d 063d 5870 483c 2599 583d
00000110: eb93 3abd 1086 613c 345b db3c 0a92 79bd
00000120: c0c6 a63b 6abb 43bd 3260 173d a040 663b
00000130: cffd 8abc e0b9 febb b412 ca3c 9243 17bd
00000140: e6b5 78bd 0070 553b 8c65 37bd a09c 303d
00000150: ca46 5dbd 9f80 a7bc 0c8c 82bc 90cd 0c3c
00000160: fca3 023d 322e 223d 7abd 32bc 46c3 843c
00000170: 4dd9 0bbd 2487 813c 20f5 f63c 60d5 493d
00000180: 09d0 2cbd 63cc 243c 09a4 29bd a837 613d
00000190: cebd 33bc f0d6 d13b 401c fabb 9ee8 6c3d
000001a0: d92c a8bc 7349 9dbc 26ca cb3c 388b 263d
000001b0: eee6 34bd 8bc3 493d 5ca1 9e3c 689f 2abd
000001c0: ee60 173d a0f9 b5bc e0db 773d 930a 5cbd
000001d0: faee 43bd 30c7 973c 60ce 663d 043d 483d
000001e0: e012 773c fc63 e1bc ce0b 143d 54f2 a33c
000001f0: fa4c 2cbd 8310 e8bc c5b2 43bd c808 4fbd
00000200: a277 603d 57ee 5e3d 28a3 8abc 3d52 96bc
00000210: d817 7bbd 64d9 20bd 5c71 b7bc 21de 3cbd
00000220: ab0b 59bd e6c9 63bd 8009 45bc f0d6 35bd
00000230: dc33 8c3c b828 e2bc ca9f 0439 a9a7 7f3b
00000240: 92ba 493d 7ac1 48bb f420 0a3d 061d 673d
00000250: bc1c 6bbc d0d1 7abc 30b4 a8bc ccf6 ea3c
00000260: 02be ea3c 6f4b e73c 73e8 c43b c04d edba
00000270: 4d01 8cbd d288 34bd 2337 3ebc 950a 593d
00000280: bcb9 58bc dbe5 0ebd 145b b83c 82f3 643d
00000290: 544d 003d 5052 83bc 17dc 3ebc 5598 b3bb
000002a0: b418 073c 3611 79bd aba7 bcbc 0a5e 05bd
000002b0: a320 e33c 1165 0ebd f530 adbc 9f8a 183d
000002c0: 30bc 51bd 14f5 3fbd c492 a13c c36e f9bc
000002d0: c591 42bd d2f6 ddbb 2285 81bd bc9c e13c
000002e0: 16e3 003d 2c7f 663d 6c40 3fbd e0b5 af3b
000002f0: 9825 5fbc 0d04 ba3c 20f6 3fbc eff3 b5bc
00000300: 1069 e5bc 534f d73c 2e50 653d b0b7 8cbb
00000310: 7b73 7b3d 4461 48bd 3ace c3bb 167d 76bd
00000320: f824 b8bc 3cb5 003d 3fd2 09bd 5432 1e3d
00000330: e56b 57bd c93d 133d 22da 21bd 694c 893c
00000340: a580 233d fc8a fbbc 51cd 86bc 9771 46bc
00000350: b024 16bd 483a 613c 0117 723d 57bc 063d
00000360: d4a5 6dbd 66c9 62bd 9053 dc3b 6a3d 05bb
00000370: 2c3f 5dbc 6cf1 703d 7cd6 873c 5526 263d
00000380: 9c47 463d 4085 e23c 0506 86bc f014 75bc
00000390: 80b1 9f3c 148e febc c0ae 783b 17d2 24bd
000003a0: 7ac8 44bd 47b8 51bd 7484 a1bc 8163 5b3d
000003b0: 8046 183a 1213 31bd a058 e53c 1d32 733c
000003c0: e4c2 03bd 9017 06bd d47b fabc 0b73 eebc
000003d0: dc86 0dbc a2ed 17bd 347b 2ebd 9146 0dbd
000003e0: f1aa 503d 9229 553d b762 533d b88c 9abc
000003f0: facb 22bd d01e e0bc 5673 60bd 4c53 79bd
0.007983059 0.035981953 -0.031887762 0.025918461 0.067857414 -0.033721305 -0.0530864 -0.0002790152
-0.059877865 0.038791634 0.032704506 -0.013635665 0.03308042 0.052626126 0.0023680753 -0.052688926
0.03697832 -0.011434442 -0.0014571461 0.004812218 -0.039355725 0.03135698 0.0043279496 -0.02724541
0.019023426 -0.0023620026 -0.050214373 0.05202646 0.03429328 -0.005905361 -0.039628677 0.017159434
-0.010301545 0.018633137 -0.01613959 -0.03348638 0.008350884 0.029149666 -0.056477956 0.011805832
-0.0079644015 0.018209353 0.025483988 0.047534272 0.0021890788 0.021293208 0.028766401 -0.040781043
-0.036767572 0.04846196 0.0532155 -0.015399292 0.04499971 -0.04863848 -0.017790588 -0.0006864999
-0.03204471 0.0029921357 0.0029032847 0.0609575 0.0023178458 0.0221649 0.054314025 0.05021792
-0.056562196 0.032849804 0.012233816 0.052880425 -0.04555122 0.013764873 0.026776887 -0.06093029
0.005089611 -0.047786154 0.036956973 0.0035133734 -0.016966728 -0.007773623 0.024667121 -0.036929674
-0.060720347 0.0032567978 -0.044774577 0.04311812 -0.054022588 -0.020447074 -0.01593592 0.008593932
0.03189467 0.039594837 -0.010909433 0.016206395 -0.03414278 0.01581151 0.030146182 0.049275756
-0.042190585 0.010058495 -0.0414162 0.05498472 -0.010970546 0.0064037964 -0.007632762 0.05783903
-0.020529198 -0.019200062 0.024876665 0.040660113 -0.044165544 0.04925875 0.019364052 -0.041655928
0.036957674 -0.022213757 0.060512424 -0.05372102 -0.047835328 0.018527597 0.05634916 0.048886314
0.015080184 -0.027513497 0.03614407 0.020013012 -0.042065598 -0.028328186 -0.04777791 -0.050545484
0.05480159 0.054426517 -0.016923502 -0.018349761 -0.061302036 -0.03926982 -0.022392921 -0.046110276
-0.052989643 -0.055612467 -0.012026191 -0.044394433 0.017114572 -0.027607307 0.00012648027 0.0039009845
0.049250193 -0.00306329 0.033722833 0.056424163 -0.0143501125 -0.015308812 -0.020593733 0.028682135
0.028655056 0.028234212 0.0060091554 -0.0018104836 -0.068361856 -0.044075795 -0.011609825 0.052988607
-0.013227876 -0.034887176 0.022504367 0.05589629 0.031323746 -0.01603046 -0.011649153 -0.005480806
0.008245636 -0.06080743 -0.023029169 -0.032560386 0.027725523 -0.034764353 -0.021141509 0.037241574
-0.05120486 -0.046864584 0.019723304 -0.030448323 -0.047502298 -0.006773808 -0.06324221 0.027540557
0.031466566 0.056273624 -0.046692297 0.0053622574 -0.013619803 0.02270701 -0.011716396 -0.022211043
-0.0280042 0.026282942 0.05598467 -0.004294358 0.061389428 -0.048920885 -0.005975512 -0.060177885
-0.022478566 0.03142284 -0.033647772 0.038622215 -0.05259313 0.035947595 -0.03951467 0.016760068
0.039917607 -0.030705921 -0.016455324 -0.012112043 -0.03665608 0.0137468055 0.05910397 0.03289446
-0.058019474 -0.05536785 0.0067238286 -0.0020330795 -0.013503831 0.058823988 0.016581766 0.0405639
0.048408136 0.02765143 -0.016360292 -0.014958605 0.019493818 -0.031073608 0.0037945956 -0.04023942
-0.04804275 -0.05120113 -0.019716479 0.05356169 0.0005808845 -0.043231077 0.027996361 0.014843491
-0.032168284 -0.032737315 -0.030576624 -0.029107591 -0.00863811 -0.03709186 -0.042597964 -0.034491125
0.050944272 0.052041598 0.051607814 -0.018865928 -0.03974531 -0.027358443 -0.054797493 -0.060870454

mean_linear.weight f4 [2, 256]
00000000: a0e4 b3bc 80d0 cd3a 22b0 40bd cca7 823c
00000010: 421f 1ebd 1161 ff3c 2f4a e4bc ffa3 90bc
00000020: 9034 fd3b 6afd 143b 4a09 5a3d 228b 7c3d
00000030: c986 323c 5227 823c e18d 783d f849 26bd
00000040: 70bd 52bd 8381 433d 9989 37bc 0c9b 233d
00000050: 7019 85bb 36c7 983c 7953 ee3c c46c 2abd
00000060: c8dd ff3c 66de 64bd 41f1 81bc 3c44 6bbd
00000070: c0a6 943a e54d 86bc e1a4 793d 43f1 69bd
00000080: 3247 41bd e064 733d eed9 4c3d 44ef dc3c
00000090: 7822 60bd 06ac 30bd 1743 823c 80c0 07bb
000000a0: 949d 91bc 849c 2c3c 5601 2dbd 5967 663d
000000b0: 34c2 47bb 524a 3f3d 6427 4d3d 5c36 413d
000000c0: 1a88 5b3d 6046 59bb 2477 7e3d 14f5 033d
000000d0: ae6b 26bd 4316 63bd 78d1 05bd ac76 433d
000000e0: 6707 ac3c 68ad 42bd 6816 523d 1f12 30bd
000000f0: 5468 95bc 00f1 5bbd 08ee 0ebd 8d6f cc3b
00000100: 1409 4bbd a31a 9a3c 7a86 113d 0844 663b
00000110: 6c49 44bd 380d f7bc 53ac babc 3871 c8bc
00000120: 4082 ed3a 5610 2d3d 50ff 4abd e050 4b3b
00000130: 1476 f23c 7c39 74bd 389f 12bc 20ab f7bc
00000140: be0e 41bd 385a e03c 0975 333d f0a5 c7bb
00000150: 3e2a 7b3d 0e2c bbbc 9020 d03c 1e5f 593d
00000160: b841 28bd fad9 243d ce1a 6a3d 6137 363d
00000170: 2551 e4bb bd41 adbb c686 47bd 88c9 18bd
00000180: fd8f e03c d931 35bd a2c7 0cbd 9011 3d3d
00000190: 26b7 073d 0008 47bc a05a 65bc 2145 85bc
000001a0: da08 2b3d e218 1a3d 5419 2bbd 0a80 953c
000001b0: 7eb4 09bd 6022 fa3b 0e9a 26bd 029e 7e3d
000001c0: 5886 39bd d0b9 0ebd 38ae 81bc 2310 903c
000001d0: a8b5 9fbc 5c46 a03c c635 7a3d a04d 2ebd
000001e0: 7efd 533d 74ca 203d b9a7 4fbd 5410 17bd
000001f0: d020 ac3b 9d5f 6bbd adc5 ba3c 92a7 71bd
00000200: 003b 6d3d 68d1 403b 32ad 78bd f9af 74bd
00000210: d9f7 50bd 1097 153c 3e81 5a3d fb47 71bd
00000220: feab 27bc 80b0 0d3d 02d0 3d3d 6fc5 4abd
00000230: 66e1 4a3b 8006 ab3c af53 663d 40e1 04bd
00000240: 8ae2 0abd 2d5e 323c 2c82 0e3d 3efc 6bbd
00000250: e7aa 71bc 64ab ee3c 40b4 173c 5cc2 bd39
00000260: 2594 3e3d ee5c 293d 5b5c 75bc 582b 0a3c
00000270: 98f0 5c3d 3089 a23b ed90 14bd acc0 823a
00000280: c1a3 53bd 6d7c 0b3c fe23 113d 10c9 913c
00000290: a6a7 fbbc 54d0 dfbc 2ffb 1abd 8ffc 34bd
000002a0: 4738 1ebb c416 a6bc d22d b1bc 6877 52bc
000002b0: fbf2 47bc 3a88 5bbc 9dda d83b 9fb1 66bd
000002c0: 97e6 2b3c c6b0 79bd c438 8b3c dbd8 123d
000002d0: 4d50 aabc 3f2d 2d3c bd5b 10bd aad3 29bd
000002e0: 3348 5a3d 20b9 393b 9eed 903c 6819 343c
000002f0: 6028 0fbc 19b8 a63c 8752 bcbb d578 d4bc
00000300: 5862 d73c ed1b 07bd c726 db3b 0011 1bbc
00000310: da0c 0bbc ed0b 15bd 4d34 4e3d b429 92bc
00000320: 9642 133d 4e49 f0bc e6bd 72bd ccb2 2abd
00000330: bbef b93c 6d3e 8d3c 50e5 01bd 6fee 1ebd
00000340: ff40 f53a 1ea1 1abd fa29 12bd 3d2c ddbc
00000350: 3c24 d03c 0021 073c 4e59 fb3c 4f0e 6fbd
00000360: 3ff0 983c 0252 4fbd 70cb 20bd 51e8 0c3d
00000370: 9c07 713d be5e 1cbd ce43 233d 7a02 05bc
00000380: 42b5 453d da3d 3ebd 3db4 9c3b b84a 453d
00000390: a385 493d 04b4 a93c 76ff 2f3d f182 b03c
000003a0: 1496 163d d661 46bd 900d c03b 11a4 583d
000003b0: 587b 38bc 1d71 2d3d c6ba 6e3d 9cae 2abd
000003c0: 448e b43c 5bb8 123c 0098 cfba 1e96 1dbd
000003d0: cc25 81bc 6653 723d ff74 693d c563 3e3d
000003e0: 5ee0 4ebd 532b 633d d02c 0bbd a06e 243c
000003f0: 68be 733d c400 6dbd cb75 293d ae75 28bd
-0.021959603 0.0015702397 -0.047042973 0.015949152 -0.03860403 0.031174215 -0.027867405 -0.017656324
0.007727213 0.0022734054 0.053231515 0.061656125 0.010896393 0.01588789 0.06068218 -0.040597886
-0.051450193 0.047730934 -0.011202239 0.039942786 -0.0040618703 0.018649679 0.029092537 -0.041607633
0.031233683 -0.05587616 -0.01586211 -0.05743812 0.0011341199 -0.016394565 0.060948256 -0.05711485
-0.047187038 0.059422374 0.05001252 0.02696956 -0.054720372 -0.043132804 0.015901132 -0.0020714104
-0.017775334 0.010535363 -0.042237602 0.056250904 -0.0030480744 0.046701737 0.050086394 0.04717098
0.053596593 -0.003315352 0.06212534 0.032216147 -0.040630035 -0.055441152 -0.032670468 0.047720596
0.020999623 -0.047528654 0.0512909 -0.04298603 -0.018238224 -0.053696632 -0.034894973 0.006238884
-0.049569204 0.01881153 0.035528637 0.0035135765 -0.047921583 -0.03015767 -0.022787249 -0.02446805
0.0018120483 0.042251907 -0.04955989 0.0031023547 0.02959732 -0.059625134 -0.0089490935 -0.030232966
-0.0471332 0.02738677 0.043812785 -0.0060927793 0.061319582 -0.022848155 0.025406152 0.053069226
-0.0410783 0.04024694 0.05715447 0.044486407 -0.006967681 -0.0052873776 -0.048712514 -0.03730157
0.027412409 -0.04423699 -0.034370072 0.046159327 0.03313365 -0.012147903 -0.013998657 -0.016268315
0.04175649 0.037621386 -0.0417722 0.01824953 -0.033619396 0.0076334924 -0.04067426 0.062162407
-0.045294136 -0.034845173 -0.015830144 0.01758582 -0.0194958 0.0195648 0.06108644 -0.042554498
0.05175542 0.039255574 -0.050697062 -0.036880806 0.005252935 -0.05746423 0.022799337 -0.058997698
0.057917595 0.002942169 -0.060712047 -0.059738133 -0.051017616 0.009130254 0.05334591 -0.058906537
-0.010233877 0.03459215 0.04634095 -0.049504694 0.0030957102 0.020877123 0.05623215 -0.032441378
-0.03390745 0.010886711 0.03479211 -0.057613604 -0.014750219 0.02913446 0.009259284 0.00036193698
0.046528 0.04134839 -0.014975633 0.0084331855 0.053940386 0.0049602017 -0.036271024 0.0009975634
-0.05166984 0.008513552 0.035434715 0.01779607 -0.03071959 -0.027321018 -0.037837204 -0.04418617
-0.002414243 -0.020274527 -0.021628294 -0.0128458515 -0.012203927 -0.013399178 0.0066178576 -0.056321736
0.010491989 -0.0609596 0.016994841 0.03585134 -0.020790244 0.01056987 -0.03524374 -0.041461624
0.05329151 0.0028339103 0.01769143 0.010992385 -0.0087376535 0.020351456 -0.0057471427 -0.025936523
0.026292011 -0.032985616 0.006687972 -0.009464502 -0.008486951 -0.036388326 0.050342847 -0.017842151
0.035952173 -0.02933183 -0.059263133 -0.04167442 0.02269732 0.017241681 -0.03171283 -0.038801607
0.0018711387 -0.03775131 -0.035684563 -0.026998634 0.025407903 0.008247614 0.030682232 -0.058363255
0.018669246 -0.050615318 -0.039256513 0.03440124 0.058845147 -0.03817629 0.039859585 -0.008118266
0.048268564 -0.046445705 0.0047822283 0.04816696 0.04919971 0.020715721 0.042968236 0.021546813
0.03676422 -0.048433147 0.005860992 0.05289084 -0.011259876 0.0423442 0.05828359 -0.041670427
0.022040494 0.008955087 -0.0015838146 -0.03847324 -0.015765093 0.059161566 0.05699634 0.046481866
-0.050506942 0.05546124 -0.033978283 0.010036141 0.059507757 -0.05786206 0.0413721 -0.041127853

mean_linear.bias f4 [2]
00000000: 6be6 fc3c 7d9d 113d
0.03087159 0.035550583

log_std_linear.weight f4 [2, 256]
00000000: 3a70 323d 74c2 e6bc a0e6 66bd 8ec8 1bbd
00000010: 9711 6fbd 816f 213d 34a6 6a3d 2f33 51bd
00000020: f8a9 f2bc 9c90 1e3c 3819 383d 0888 6c3c
00000030: bf47 e6bc 30dd c43c 22bc 27bd 1808 4bbc
00000040: f6f9 3a3d 9636 2c3d 1782 573d 8c38 bbbc
00000050: 005c 71ba 1fbe 4c3d 69d7 573c e49b bfbc
00000060: 9018 263c 3ca1 5fbb 16c3 4e3d 34d6 093d
00000070: 040b adbc 728a c6bc 785e 433d 927e 2e3a
00000080: 6854 4e3d 969d 09bc 445b fd3c a6f3 50bd
00000090: bb41 a73c a0bc 433d 23e4 9b3b 163a 15bc
000000a0: a921 203d 92ad 813d 52b0 0d3d 4a6a 2bba
000000b0: 15c8 713c 9c19 5cbd 06e6 5c3d e656 42bd
000000c0: 5e8b 73bd 9023 f0bc b99c 71bd a05d 71bd
000000d0: c8db e73c 3c8b 6bbc 91ab 42bd 126b f4bc
000000e0: 6df9 31bd 0e34 51bd 192c 023c 1b32 2dbd
000000f0: 8818 39bd 153c 293d 8215 083d 0e64 b4bc
00000100: 2c39 d13c 9bf2 51bd c00f 99bc 1a6e 1e3c
00000110: 7140 81bc 94df 8b3c 0763 f93a 70da 013d
00000120: e0c1 be3b d361 c53c fc63 fabc 260f 4cbd
00000130: 93e3 3dbc 68c2 fb3c e42e fc3c e469 d1bc
00000140: 4a03 51bd 2899 50bc b12c 293d 60b0 24bb
00000150: e475 7ebd fe7e 4e3c d853 1c3c 04e6 ac3c
00000160: 7435 c5bc 3932 4e3d b382 fb3a fd2f eabc
00000170: 7f54 e23c 97c9 f1bc 4c49 713d 3873 e7bc
00000180: 0f74 2b3d d300 5fba a732 d83c e010 0ebc
00000190: aaef edbc a42b 02bd 1cae ccbc b984 113d
000001a0: b4ba bbbc 23e0 6c3d 1071 bd3c f96f 6e3d
000001b0: 9291 ae3c e5d1 93bc a0ea 453b f48a cc3c
000001c0: 6cdb 4fbd e04a 83bc b7d8 713d 4fb5 a8bc
000001d0: 4e27 583d 9644 6c3d fc29 2abd d856 39bc
000001e0: 2ca0 023d f425 5ebd ff1e a2bc 9938 4ebd
000001f0: 0c57 c73c 6696 603d 092e bbbc 50d4 c9bc
00000200: d48d 0e3d 33f6 d83c 1468 88bc 148b 703d
00000210: 8ed4 793d e814 dcbc 7c1b a6bc 3418 3f3d
00000220: 2727 6f3c e0fe 543c 64aa 2b3d e4b9 57bd
00000230: 5e98 3bbb c84e 51bd 1a0c 623d ee02 fcbb
00000240: 7855 42bc 445e 56bc 6f5d 1fbc 8850 653c
00000250: 9807 cf3c 8982 8c3b 2c23 cdbc d317 673d
00000260: 7aed 783d a0f8 83bc a08e 84b9 ec63 82bc
00000270: 298e 3f3d e079 48bc 105f d43c 498d 403d
00000280: 1fcb 27bc 8a51 ad3a 745d 9f3c 1655 383d
00000290: 17b2 8ebc e803 ccbc a993 403d 0b2e e6bc
000002a0: 66bc 1f3c 4092 ad3b 3012 f1bc aa3c 413d
000002b0: 9f31 aebc 7580 60bc 0c43 bebc 1608 ff3c
000002c0: 7445 4e3d 1c73 833c 680f 24bd b62f f5bc
000002d0: dfa7 b2bc ee2d 5cbd 2daa 5a3d d8c0 703d
000002e0: 649b 7fbb 60df 02bd eaa4 9dbb 2a22 513d
000002f0: 6cb3 a13c 7724 52bd 9904 063d 86e2 d43b
00000300: 0426 73bd 1998 143d 4ba2 2dbd 10bb 4cbc
00000310: 27ff 193d 311a ddbc b62c 07bd 9437 4bbd
00000320: 4653 7d3d 6010 9b3c 0350 0a3d 5cce 563d
00000330: 08c8 95bc 9d08 85bc 0426 5fbd 0af3 493d
00000340: 79f4 5f3c 2422 6ebd 6338 c13c b394 5d3d
00000350: 401b a03b 9e4c 6c3d c677 4dbd d3a2 67bd
00000360: 3eb9 8d3c 7e82 2bbd 4009 e7bc 8cf1 be3a
00000370: 777f 153d fedb 013d 5063 1ebd c6b5 1fbd
00000380: c540 30bc a0a3 ac3c 5100 61bd a039 693b
00000390: ef20 e13a 88ca 293d 08e6 09bd 9db1 4cbd
000003a0: 18ae 20bd 3d33 a3bc 401f ab3b 8f3c 52bd
000003b0: c8c1 023d 6162 953c 200e c03b 0ce5 4c3c
000003c0: 744a 55bd 35ee 00bc 286f e4bc 412f e83c
000003d0: 1955 0ebd 00e9 7c3c 1e33 653b f291 373d
000003e0: f331 d53c f399 1bbd 1541 6a3d 5c7e c93c
000003f0: 029c 3d3d 40d7 29bb b12d 6f3d e8d8 2dbc
0.04356406 -0.028168894 -0.056372285 -0.03803306 -0.058366384 0.03941298 0.05728741 -0.051074203
-0.029622063 0.009678032 0.044945925 0.014436729 -0.028110383 0.024031252 -0.0409509 -0.012392066
0.045648538 0.042044245 0.052614298 -0.022854112 -0.00092071295 0.049986 0.013173916 -0.023389764
0.010137692 -0.0034123203 0.050479017 0.033651546 -0.021123417 -0.024235938 0.047697514 0.00066564337
0.050373465 -0.008399388 0.030927308 -0.05101361 0.020417085 0.04778731 0.0047574206 -0.009108087
0.0390946 0.06331934 0.03459198 -0.00065389706 0.014757176 -0.05373536 0.053930305 -0.047446154
-0.059459083 -0.029313833 -0.058987353 -0.05892718 0.028303042 -0.014376458 -0.0475269 -0.029836211
-0.04345076 -0.051075034 0.007945084 -0.042284112 -0.04518941 0.041317064 0.033223636 -0.022020366
0.025539957 -0.051256757 -0.018684268 0.009669805 -0.015777798 0.017074384 0.0019026705 0.03170246
0.0058214515 0.024094498 -0.030565254 -0.049819134 -0.011589902 0.030732349 0.030784078 -0.025563188
-0.051028527 -0.012731828 0.041302387 -0.0025129542 -0.062124148 0.0126035195 0.009541474 0.021105774
-0.02407334 0.050340865 0.0019188732 -0.028587336 0.027628182 -0.02951507 0.058907792 -0.028253183
0.04185873 -0.0008506898 0.02639134 -0.0086710155 -0.029044945 -0.0317799 -0.024985366 0.035526965
-0.022916175 0.05783094 0.023125201 0.058212254 0.021309648 -0.018044421 0.0030199662 0.024968602
-0.050746366 -0.016026914 0.059044566 -0.020594267 0.05277186 0.057682596 -0.041543946 -0.011312209
0.031891033 -0.054235414 -0.01979017 -0.050346944 0.0243335 0.05483093 -0.0228491 -0.024637371
0.034803227 0.026484584 -0.01665119 0.058726385 0.060993724 -0.026865438 -0.020276777 0.04665394
0.014596737 0.01300022 0.041910544 -0.052667513 -0.0028624753 -0.051100522 0.055187322 -0.007690779
-0.011861198 -0.013083998 -0.009726866 0.013996251 0.025272176 0.004288022 -0.025041185 0.056419205
0.06077335 -0.016109765 -0.00025283266 -0.015916787 0.046766434 -0.0122360885 0.025924236 0.04700974
-0.010241299 0.0013223153 0.019453742 0.04500302 -0.017418904 -0.024904206 0.04701582 -0.028098127
0.0097495075 0.0052969754 -0.029427618 0.047176994 -0.021263896 -0.013702502 -0.02322533 0.031131785
0.050359204 0.0160461 -0.040053755 -0.029929977 -0.021808563 -0.05375474 0.05338495 0.05877766
-0.0039002532 -0.03195131 -0.004810919 0.051057972 0.019738875 -0.051304307 0.03271923 0.0064967303
-0.059362426 0.036277864 -0.042391103 -0.012495771 0.037596848 -0.026990028 -0.033001624 -0.04961355
0.061846994 0.018928707 0.03376771 0.052442893 -0.018283859 -0.016239459 -0.054479614 0.049304046
0.013669127 -0.058138028 0.023586458 0.05409689 0.004886061 0.057690255 -0.050163053 -0.056551766
0.017300244 -0.041872494 -0.028202653 0.0014567836 0.036498513 0.03170394 -0.03866893 -0.038991712
-0.01075763 0.021074116 -0.054931942 0.0035587326 0.0017175953 0.041452914 -0.03366664 -0.049974073
-0.03922853 -0.019921893 0.005222231 -0.051327284 0.031923085 0.018235387 0.005861059 0.012505781
-0.052072957 -0.007869293 -0.027885035 0.028342845 -0.034749124 0.015436411 0.0034973095 0.04481692
0.026024794 -0.037988614 0.057190973 0.024596386 0.04629136 -0.0025915653 0.058393184 -0.0106107965

log_std_linear.bias f4 [2]
00000000: 30f6 fcbb cdea c13c
-0.0077197775 0.023671532
