sac_policy_vanet.pth (torch, 275692 bytes, 8 tensors)

fc1.weight f4 [256, 4]
000000 72 5f 4f 3e db 6b 82 bd bc 1d a4 bc 0c 34 e8 3e
       0.20251253 -0.06368228 -0.02003371 0.4535221
000010 4c c4 eb 3e 83 a4 94 be 9a 08 ab be f3 a6 e4 3e
       0.460482 -0.29031762 -0.33405 0.44658622
000020 9b ad 86 be 30 ae ea 3b 1c 56 12 3f d5 0d e9 3d
       -0.26304325 0.007161878 0.5716264 0.113795914
000030 4e 3f b1 be 4d ba c6 be 9f ea f2 be 03 07 ef 3e
       -0.3461861 -0.3881401 -0.47444627 0.46685037
000040 21 15 0b be 8c b5 2a 3e 11 83 7b 3d 2d ed e2 3e
       -0.13582279 0.16670817 0.06140429 0.44321576
000050 93 3d 08 3c 4a 83 70 bd 46 c3 92 be 39 2f f0 3c
       0.008315462 -0.058718957 -0.28664607 0.029319393
000060 fa 52 c8 be 80 89 30 3e 90 a5 c8 be 61 e7 5c bb
       -0.39125806 0.17239952 -0.39188814 -0.0033707249
000070 9c b0 1f 3e 77 89 fa 3c 32 69 c4 3e 90 b8 e1 be
       0.15594715 0.030583126 0.38361508 -0.44086123
000080 f4 a6 f4 3c 68 05 3f be c6 02 bf 3e 67 41 b0 3e
       0.029864766 -0.18654406 0.37306803 0.34424898
000090 91 81 99 be 69 cb e0 3e 85 d1 3a be 35 67 46 3e
       -0.29981664 0.4390519 -0.18243988 0.19375308
0000a0 58 ee 7f be c0 b7 6c bc ac c7 41 be 3a 89 cb be
       -0.24993265 -0.014448106 -0.18923825 -0.39753133
0000b0 bc d7 80 3e 0b 35 34 be 50 68 c8 be fd f0 46 bb
       0.25164592 -0.1759836 -0.39142084 -0.0030356043
0000c0 93 5b 1b 3e d9 0c 05 3d fd 2e f7 be f4 35 1f 3e
       0.15171652 0.032482956 -0.48278037 0.15547925
0000d0 56 2f aa be 5c ab 42 be 00 86 36 3e 80 01 4c bc
       -0.3323924 -0.19010681 0.17824554 -0.0124515295
0000e0 5b dc de 3e cd d0 52 be 85 ef 4b 3d 10 ff b7 3e
       0.43527493 -0.20587464 0.04978897 0.35936785
0000f0 70 57 d8 3e ab a2 96 3d 6a 4e 1b bd fd 1b e9 3e
       0.4225421 0.07355245 -0.03791658 0.45529166
000100 be c8 c4 be 18 51 53 be f8 6f 22 3e 04 3e 14 be
       -0.38434404 -0.20636404 0.15863025 -0.14476782
000110 85 55 9c 3e db 09 90 3d 95 4a 12 bf 71 51 af 3d
       0.30533996 0.0703313 -0.57145053 0.085604556
000120 fb d3 33 3c 23 15 12 be 88 5c d3 be 49 b7 4e 3e
       0.010975833 -0.14265876 -0.41281533 0.20187105
000130 38 b1 1c 3e 96 06 01 be 51 2f 57 3e 85 75 28 3e
       0.15301979 -0.12600169 0.21014144 0.1645108
000140 08 0d a9 be 20 53 7a be c0 87 17 3d 00 e5 a6 3d
       -0.33017755 -0.24445772 0.036994696 0.08149147
000150 ec 86 7d be 60 43 f5 3c 90 be 67 be 0e d9 85 be
       -0.247585 0.029939353 -0.22631288 -0.26142162
000160 1c d4 09 be 34 7b ad be ba fd f9 be c0 9a 42 3d
       -0.1345982 -0.3388306 -0.4882639 0.047510862
000170 1a cf bf 3e c4 70 f7 bb 62 40 b4 bc 3a 96 2c be
       0.37462693 -0.0075512845 -0.022003356 -0.16854182
000180 f2 e2 7f be 25 6d c5 be 8a ba e7 3e 38 fa e4 3e
       -0.24988917 -0.38559833 0.45259506 0.44722152
000190 b0 b7 ad 3e dd be 27 bd 5d cf 7d 3e b0 bb 5e be
       0.33929205 -0.040953506 0.24786134 -0.21751285
0001a0 5a 03 c6 3e d8 ce c5 be 90 f2 39 3d 8c 4d 47 be
       0.38674432 -0.38634372 0.04539734 -0.19463176
0001b0 24 a7 cd 3d 84 3e 82 3e 68 58 b7 bd 0b 8e d7 bd
       0.10041645 0.2543832 -0.08952409 -0.105251394
0001c0 bb 7b 13 be 80 3d d1 3e 48 09 08 3f ac d4 b5 be
       -0.14402668 0.40867233 0.5313916 -0.35513818
0001d0 34 6d 6a be 80 9d de be 58 c1 61 be c0 c6 af bd
       -0.2289322 -0.43479538 -0.22046411 -0.085828304
0001e0 59 38 04 bf 53 b4 03 3e 15 1c d3 3e 8f ea 42 bd
       -0.5164848 0.12861757 0.41232362 -0.047586974
0001f0 10 bf 7e 3e 95 da 52 3e a0 13 92 be 02 f2 ec be
       0.24877572 0.20591195 -0.28530598 -0.46278387
000200 ab 2b 21 be dd e4 f0 3e 98 e8 4c 3d df 3a 2e be
       -0.15739314 0.4704961 0.050026506 -0.17014645
000210 55 18 41 3e 70 e5 ec 3e dc 54 94 3e de 49 b3 be
       0.18856938 0.46268797 0.28970993 -0.35017294
000220 f4 24 ff 3c 53 da c0 3e 20 39 9f 3d bc 4c f1 be
       0.03114555 0.37666568 0.077745676 -0.47128856
000230 ca 8f b1 be 1c 4d d7 3d f5 8f f2 be 04 61 a7 3e
       -0.34680015 0.10512754 -0.47375455 0.32691205
000240 0f 77 24 3e 25 57 12 3e 8a 61 43 be 0a 91 b5 3e
       0.16061042 0.14291056 -0.19080177 0.3546222
000250 8e 0d a7 3e 3c f2 4e 3e fa 7e 0e be 30 9d cc 3e
       0.3262753 0.20209593 -0.13915625 0.39963675
000260 03 64 98 3e fb 5a 8b 3e 9a c2 00 3e 72 18 cb bd
       0.29763803 0.2721785 0.12574235 -0.09916772
000270 b4 71 5b 3e 18 48 01 be c2 87 a3 3e 9c 19 c9 be
       0.21430093 -0.12625158 0.31939512 -0.3927735
000280 36 1c 7d 3e 91 18 1d be 83 35 0f bd 8f 28 9d 3d
       0.24717793 -0.15341403 -0.034963142 0.076737516
000290 ec 20 97 bd c9 92 c6 3e 98 22 46 3e 17 2b d1 3e
       -0.07379326 0.38783863 0.19349134 0.40853187
0002a0 60 aa e0 be 4c 79 bd 3e b5 a1 e2 3c 6b 9b 18 3e
       -0.43879986 0.37006605 0.027664999 0.14903037
0002b0 11 b7 3a be dc 02 45 3e 26 a2 40 3e 97 36 f0 3e
       -0.18233897 0.19239372 0.18811855 0.4691665
0002c0 04 43 02 be a4 d3 ce be 0e 8d 9f 3e c2 e7 ff be
       -0.12720877 -0.40395844 0.31162304 -0.49981505
0002d0 99 49 99 3e d0 e5 a1 be c2 cd f5 3e 52 e6 e9 3e
       0.29938963 -0.31620646 0.48008543 0.45683533
0002e0 ce c5 30 3e e1 71 f3 be dc 19 b4 3e 78 65 3c 3e
       0.17262957 -0.4754782 0.3517598 0.18398082
0002f0 7e 84 75 be b8 45 d2 3e c1 34 27 be fe 55 d9 3e
       -0.23976323 0.41068816 -0.16328718 0.4244842
000300 d4 65 c4 be 11 1a ac bc 97 ea 09 bf a7 44 5c 3e
       -0.3835894 -0.021008523 -0.5387358 0.21510564
000310 eb af 29 3e 0c 38 09 be 7c 6e e3 be b3 10 48 3d
       0.16571014 -0.13400286 -0.4442023 0.04884405
000320 48 24 b7 3d 2f d7 f1 3e 88 3d db be 8d 8e 79 3e
       0.08942467 0.47234485 -0.42820382 0.24370785
000330 ae c0 b8 3e 18 85 76 3d bb ba 91 3e 56 52 51 be
       0.36084503 0.06018552 0.28462777 -0.20441565
000340 f2 ca e4 3e a3 7f 19 bd 6b 7b 41 be 7b d3 76 be
       0.44686085 -0.03747524 -0.18894736 -0.24104111
000350 87 7a 29 be cc 3e 26 3e ad 0a a5 be dd b9 f7 3e
       -0.16550647 0.16234893 -0.32234707 0.4838399
000360 49 9c ee 3e 75 d4 e6 3d 79 0e 9e 3e 6e 43 e8 be
       0.4660361 0.11270992 0.30870417 -0.45363945
000370 18 54 b7 3d e8 63 0b be 40 0c 5a 3d 08 eb 9f be
       0.089515865 -0.1361233 0.05323434 -0.31234002
000380 4f fe b0 be 0a d9 10 3e 1b 22 92 3e d4 0a a2 3e
       -0.34569022 0.14145294 0.28541645 0.31648886
000390 5b 2e f3 be 5e ac a6 3d d4 a3 ec be c2 7c 84 3e
       -0.47496304 0.08138345 -0.4621874 0.25876433
0003a0 cd 33 40 be d2 0c de 3e b2 b3 a1 3e 54 c6 b9 be
       -0.1876976 0.43369156 0.3158241 -0.36284125
0003b0 48 51 fa 3e 47 52 98 be 38 2f e6 bd dd b7 72 be
       0.48890138 -0.29750273 -0.11239475 -0.23702951
0003c0 d5 cb d8 bd 45 6f e3 3d b1 46 51 3e 32 32 c4 3c
       -0.10585753 0.11105207 0.20437123 0.023949716
0003d0 36 e1 4f bd 8d bf 8f 3e 2d c1 54 be 01 22 ad bd
       -0.050751887 0.2807583 -0.20776816 -0.08453751
0003e0 ad d3 3b be 56 96 45 3e 48 0f 0b bf f6 ac 6b bc
       -0.18342467 0.1929563 -0.5432019 -0.014384499
0003f0 30 a5 27 3d e0 c5 b7 be fc 92 ba be 82 b4 b0 be
       0.04092902 -0.35893154 -0.36440265 -0.34512717

fc1.bias f4 [256]
000000 6d fd 97 3e 45 db 01 3f a0 bb e5 be 1a 80 99 3d
       0.29685536 0.50725204 -0.4486971 0.074951366
000010 6f fe 0f bf 64 3d fd be d1 81 44 3d 81 59 2d 3e
       -0.5624761 -0.494609 0.047975365 0.16928674
000020 92 c7 0d bf e3 42 7d 3e 7c a5 ef 3e 39 28 05 3d
       -0.55382645 0.24732547 0.46805942 0.032509062
000030 5c a0 28 3e ee f2 cf be af f5 81 be 08 34 12 bf
       0.16467422 -0.40615028 -0.25382754 -0.57110643
000040 4e f9 93 3e a9 a8 b2 3e 7a b3 b8 be 92 f4 81 be
       0.28901142 0.34894302 -0.3607443 -0.25381905
000050 a0 1c b0 be 0a 20 fa be f0 74 b2 3e 33 7f dd 3e
       -0.3439684 -0.4885257 0.3485484 0.43261108
000060 6c e7 0a be 87 57 51 be c8 49 f4 3e 12 44 09 bf
       -0.13564843 -0.20443545 0.4771254 -0.5361949
000070 26 29 09 bf 7c d5 c1 be 8a 09 c5 bc 99 de 51 3d
       -0.5357841 -0.37858188 -0.0240524 0.051237676
000080 d6 36 0e be 5f f4 82 3e c4 71 c6 3e 02 10 12 3e
       -0.13888106 0.25577065 0.3875867 0.14263919
000090 65 e3 ed be bb 73 97 3c 76 42 b5 3e 76 b6 ff 3e
       -0.4646255 0.018487802 0.35402268 0.49943894
0000a0 c6 4b 70 be 27 34 80 bc 43 82 99 3e b3 ee f3 be
       -0.23466405 -0.015649868 0.29982194 -0.4764305
0000b0 48 fb a5 3e b7 da 12 bf 8c d2 c7 3e 82 1d d1 3e
       0.32418275 -0.5736498 0.39027822 0.40842825
0000c0 c5 d6 65 3e 55 51 f3 bd 49 27 14 3f e9 f5 94 3e
       0.2244521 -0.11880747 0.57872444 0.29093865
0000d0 01 2f f2 3e 68 da d0 3e d0 58 66 3e 34 17 7d 3e
       0.47301486 0.4079163 0.22494817 0.24715883
0000e0 cd 29 39 3d b8 bc ce bd 02 73 cd be eb 70 10 be
       0.04520588 -0.10094589 -0.40126806 -0.14105575
0000f0 d2 58 3b be d4 94 9f 3e 7b 2c ac bc c4 e3 9b 3e
       -0.18295601 0.31168234 -0.021017304 0.3044721
000100 d5 c6 1f bd 72 d7 eb be a0 79 09 3f dc 12 95 3e
       -0.03900798 -0.4606281 0.5370121 0.2911595
000110 a0 01 3a 3e 84 1f 6c be a7 f5 c6 be 24 3e c1 3e
       0.18164682 -0.23058897 -0.38859293 0.37742722
000120 71 ec a4 3e 42 59 27 3e 13 4a ef be 01 1a 90 bd
       0.3221164 0.16342643 -0.46736202 -0.0703621
000130 c4 52 80 be 00 92 30 bc 4a f7 62 be 59 2f ab bd
       -0.25063145 -0.010776997 -0.22164646 -0.0835864
000140 fa c9 dd 3e fc 0c 39 be cc 1c da be 49 0f 03 3f
       0.43318158 -0.1807136 -0.42600095 0.511952
000150 c6 d4 11 bf 20 50 a2 bd 1c b7 60 3e 4b be a3 be
       -0.5696529 -0.07925439 0.2194485 -0.3198112
000160 68 18 45 3e 14 c6 4e bd 57 ac 9f bd 81 72 0f 3f
       0.19247591 -0.05048187 -0.07796543 0.56034094
000170 25 80 d6 be 16 34 3a be 88 f2 fa 3e 28 de 05 3f
       -0.41894642 -0.18183932 0.49013162 0.5229211
000180 84 ba 7c be 52 d1 3b be 34 6b 39 3e bc 89 7f be
       -0.24680525 -0.18341568 0.18107301 -0.24954885
000190 99 e2 97 be 41 e7 47 bc 78 e9 95 bd aa b7 0a be
       -0.29665068 -0.012201131 -0.07319921 -0.13546625
0001a0 72 a7 0c 3f 48 5b c8 3d 61 69 78 be 61 89 b7 3c
       0.54943 0.097830355 -0.24258949 0.022404375
0001b0 d4 09 c9 bd 7e 0d a8 3e b3 6c c3 3c 1a f2 b7 3e
       -0.09816328 0.32822794 0.023855543 0.35926896
0001c0 fb 23 8e 3e 35 40 ad 3e a0 2f 90 3d 4d 04 82 be
       0.27761826 0.3383805 0.07040334 -0.25393906
0001d0 20 a1 a4 bd b8 03 d5 bd 0c 85 16 3e c6 59 99 3e
       -0.08038545 -0.104011 0.14699191 0.29951304
0001e0 98 0c dc be 44 76 c7 be 4e 35 fc be c2 8e ac 3e
       -0.42978358 -0.38957417 -0.49259418 0.33702666
0001f0 c5 66 59 be ea 41 c2 be ea bf 12 3f bc 85 00 3e
       -0.2123061 -0.37940913 0.5732409 0.12551016
000200 cd 74 fa 3d a2 a9 3f be b2 b9 d6 be ab e3 94 3e
       0.12229309 -0.18717054 -0.4193855 0.29079947
000210 4c 95 01 3e 82 34 89 3e 89 c5 c8 be 72 95 f1 3d
       0.12654608 0.26797873 -0.39213207 0.117960826
000220 ad 1d 0b be e5 23 0c 3e 26 a7 6d bd 6e fd c1 3e
       -0.13585539 0.13685568 -0.058020733 0.37888664
000230 88 d6 c6 3c 71 4c ee 3e d2 81 10 bf 5c b5 12 be
       0.024272218 0.46542695 -0.5644809 -0.14326996
000240 64 83 ba 3d df c9 77 bd d6 9b ef 3e 40 71 ef 3d
       0.09107092 -0.060495254 0.4679858 0.116915226
000250 21 77 aa be 3e 59 d3 3e 70 ef d7 3d 56 b7 eb 3e
       -0.33294013 0.41279024 0.10543716 0.46038312
000260 e0 b3 4a be c4 34 94 be de 08 b2 be af a6 d1 be
       -0.1979518 -0.28946507 -0.3477239 -0.40947482
000270 52 0a 67 3e 2c 3a 3c 3e bb 2e e9 3e 37 0c df bd
       0.2256253 0.18381566 0.45543465 -0.10891002
000280 f0 01 18 bd a4 65 09 3c 50 ac bf 3e 7c c1 44 be
       -0.037111223 0.008386049 0.37436152 -0.19214433
000290 d0 8c 60 bd 16 63 95 be 91 ba 8f be ae f0 d5 3e
       -0.05482179 -0.2917716 -0.28072026 0.41785187
0002a0 54 77 bc 3e 9f 70 d2 3e a7 a6 97 3e 1b 49 f0 3e
       0.3680979 0.41101548 0.29619333 0.46930775
0002b0 c8 68 b2 be 73 18 07 3f ca 0f 60 3d bb 55 a7 be
       -0.34845567 0.5277168 0.054702558 -0.32682595
0002c0 c0 ab 1c 3f 22 28 4d be 5c e1 7d 3e de c6 0e 3f
       0.6119957 -0.2003484 0.24792999 0.557722
0002d0 16 9c f1 3e bf 10 88 be bc e3 ae 3e f9 5f 9b 3e
       0.47189397 -0.26575276 0.34158123 0.3034666
0002e0 38 5c 01 3f a6 3c ff 3d 12 93 da 3e 12 e3 dd be
       0.5053134 0.1246274 0.4269033 -0.43337303
0002f0 48 43 90 3e 88 f3 cd bd 2f 2f 3c 3e 29 ba b2 be
       0.28176332 -0.100562155 0.18377374 -0.34907654
000300 00 c0 00 3f ac 32 06 be 0f 2c b4 3e 99 3f 40 3e
       0.5029297 -0.13105267 0.35189864 0.1877426
000310 80 33 c7 3d 1a 7b a3 be a0 1d f2 bd 8b 40 a6 bd
       0.0972662 -0.31929857 -0.11822057 -0.08117779
000320 ce de 85 be 3e 17 f2 3e 42 08 0e bf c2 c2 81 be
       -0.2614655 0.47283357 -0.5548135 -0.253439
000330 10 e4 15 bf df de 64 be b5 54 ad be c0 98 30 3d
       -0.5855112 -0.22350644 -0.3385369 0.043114424
000340 ca 77 f8 3d e0 1f f7 bd 54 ba e6 3e 81 df 8a 3e
       0.12132223 -0.120666265 0.45064032 0.27123645
000350 68 5b 14 bd cd e5 0c be 90 d4 0d 3e a8 50 d0 be
       -0.036219984 -0.13759537 0.13850617 -0.40686536
000360 cc 3b 21 be 74 d0 98 be 7a 74 ae be 82 21 a0 bd
       -0.15745467 -0.29846537 -0.3407324 -0.07818891
000370 6a 41 6f be 00 43 4e be 99 d4 c0 be cc 74 38 3e
       -0.23364797 -0.20142746 -0.376622 0.18013304
000380 a3 89 f0 3e 73 1e 86 be 07 99 f2 3b 45 e6 df 3d
       0.46980008 -0.26195106 0.007403496 0.10932592
000390 94 48 5f be c3 1a e7 be 9a fe f3 3d b1 68 e0 be
       -0.2180503 -0.45137605 0.11913796 -0.43829873
0003a0 b9 3e 43 3e 04 a2 e7 3e da 77 4e 3d 90 ca 52 3e
       0.19066896 0.45240796 0.050407268 0.20585084
0003b0 d7 fe 2e be 2e d8 aa 3e ac 4e f5 be 2a b1 26 be
       -0.17089401 0.33368057 -0.47911584 -0.1627852
0003c0 4e a3 f1 be a3 06 f5 be 00 41 0b bd fc 7a ab bd
       -0.47194904 -0.47856626 -0.033997536 -0.08373067
0003d0 c6 09 93 3b 60 a8 07 3e cd f5 ae 3e 79 87 f4 3e
       0.004487249 0.13247824 0.34171906 0.47759607
0003e0 94 3c f1 be a0 a2 07 bd c9 40 f3 3e f9 50 7a 3d
       -0.4711653 -0.033114076 0.47510365 0.061112378
0003f0 a0 be a4 bc 2c 65 b1 3e 8a 94 8e 3d 90 1f 38 3d
       -0.020110428 0.346475 0.06961925 0.044951975

fc2.weight f4 [256, 256]
000000 0d f9 11 3d 8f 2e 99 bc ab 0c d4 3b 46 df 3a 3d
       0.035637904 -0.018698959 0.0064712367 0.045623086
000010 75 28 02 bc f0 a6 ac 3b 6d 45 0d bd 92 73 40 3b
       -0.007944216 0.005268924 -0.034490038 0.002936576
000020 d4 2b 18 3d 72 c7 58 bd b0 04 56 bd 1c c0 f7 bc
       0.037151173 -0.05292458 -0.052250564 -0.030242972
000030 1f 2c 93 3c c0 b6 3b 3d ea 65 4a bd 53 a5 31 3d
       0.017965375 0.04582858 -0.0494136 0.043370556
000040 44 cb 89 bc 26 1a 4d bd b2 31 d6 3c 00 11 66 bd
       -0.016820557 -0.050073765 0.026146743 -0.056168556
000050 2c 01 b0 bc b8 77 5d 3d 56 12 57 bd df f4 75 bd
       -0.021484934 0.05406925 -0.05250772 -0.06004798
000060 58 c3 8b bd e9 fc 3e 3d a6 0a 18 bd 53 cb 02 3d
       -0.06824368 0.046627913 -0.03711953 0.031932186
000070 18 05 57 bd f8 d4 43 3c 17 6d 38 bd 77 65 71 bd
       -0.052495092 0.011952631 -0.04502591 -0.058934655
000080 f1 ff 7f bd 29 06 70 3d 2f a3 11 bc f3 c4 d5 bc
       -0.062499944 0.058599625 -0.008889004 -0.02609489
000090 ac d0 f8 3c e6 1b 9a bc 66 aa 0d 3d 60 d5 b1 bc
       0.03037294 -0.018812131 0.034586333 -0.02170819
0000a0 fe 40 0d 3d 7a ec 04 3c 7c 7c c6 3c 17 f4 0f bc
       0.03448581 0.008113021 0.02422928 -0.008786223
0000b0 38 5e 1f 3d 20 b6 ba 3b 9c 7c b1 3c 3d d2 8b 3c
       0.038908213 0.0056979805 0.021665864 0.017068023
0000c0 cf 87 22 3c 45 d2 17 3c 14 d8 0b bc 95 d6 25 3c
       0.009920075 0.009266441 -0.008535404 0.010121961
0000d0 0e 6a 47 3d 92 b2 4f bb 56 ee 73 bd ac bd e5 bc
       0.048685126 -0.003169213 -0.059553467 -0.028044544
0000e0 f2 49 3f 3c 56 dc d1 bc 8a f1 8f bc 3b 67 14 bd
       0.011675345 -0.02561776 -0.01757123 -0.03623126
0000f0 fb 79 3c 3d 8f be e7 3c 5c 2b 33 3d 9c 98 42 bd
       0.046014767 0.028289108 0.043742523 -0.04750882
000100 56 cf c9 3b c2 07 4b bd 6e ec 12 bd a7 f0 5f 3d
       0.0061587496 -0.049567945 -0.03587001 0.054672863
000110 96 38 5a 3d a0 84 54 3d b7 05 71 3c 40 dd f5 3b
       0.05327662 0.051884294 0.014710835 0.0075031817
000120 b4 e5 57 3c e1 2a 1f 3d e5 cd 84 bc ce 5b 81 3b
       0.013177324 0.038859252 -0.01621146 0.0039477115
000130 02 7e 7b 3d e4 5e f6 bc 78 0f 7c 3c a2 58 28 3d
       0.061399467 -0.030074544 0.015384547 0.04110015
000140 14 fb 56 3d fa 61 4e 3d cc ac 84 bd 2d 1d da 3c
       0.05248554 0.050386406 -0.06478271 0.02662524
000150 74 b0 d8 3c dc fa 5c 3d 08 c4 20 bc 50 ad 1c 3d
       0.026451327 0.053950176 -0.0098123625 0.03825122
000160 b5 f4 81 bd 6f 9d 58 bc 7a 6d ec 3c 3a bc 4c bd
       -0.06345502 -0.013221129 0.028860796 -0.049984194
000170 3c ef 0a 3d 38 97 42 bd 3e d5 44 bd c8 45 65 bd
       0.033919558 -0.047507495 -0.048054926 -0.05597475
000180 8a 22 35 3d ab b1 33 bd 22 73 cd bc 16 0f 22 3d
       0.044222392 -0.04387061 -0.025079314 0.03956517
000190 e1 c1 ce bc 59 69 0e bd 5e e0 41 3d 7a 08 eb bc
       -0.025238933 -0.034768436 0.047333114 -0.028690565
0001a0 36 1d bb 3c e0 af 68 bb 08 0d 30 bd 94 f5 77 3d
       0.022841077 -0.003550522 -0.042981178 0.060536936
0001b0 ff 9b d0 3b e8 ec 75 bc b5 0e 13 bb 40 19 7c bd
       0.0063662524 -0.015010096 -0.0022439186 -0.061547518
0001c0 f7 6b 3d bd 94 c0 e0 3c 54 ae 38 bd e3 b8 17 bc
       -0.04624554 0.027435578 -0.045088127 -0.009260389
0001d0 80 3a 4f 3a f8 fc ca 3c 04 88 30 3d a2 33 8a bd
       0.00079051405 0.024778828 0.043098465 -0.067481294
0001e0 e2 74 6f bd 80 4a 8f 3a 50 b5 17 bc f4 14 74 bd
       -0.058461078 0.0010932237 -0.009259537 -0.059590295
0001f0 15 bb 9e 3c f8 03 a1 bd 54 bc 62 bd 6c c1 16 3d
       0.019376317 -0.07862085 -0.055355385 0.036805555
000200 95 2c fa 3c f5 81 bf 3c 29 bb 65 3d 6d 25 7e bd
       0.030538836 0.023377398 0.056086693 -0.06204741
000210 a8 b7 47 bd 80 65 e1 bc 4f ab 1b bd 3d b4 ac bc
       -0.048759133 -0.02751422 -0.03800517 -0.021082038
000220 1b 52 36 bd 35 13 01 3d 6e b8 cb 3c a8 de 9a bc
       -0.044511896 0.031512458 0.024868216 -0.018904999
000230 47 23 df bc 45 a9 5b bd 3c ac 00 ba d0 cc 33 3c
       -0.027238501 -0.053628225 -0.00049084774 0.010974124
000240 9f 53 12 bd 9b 99 32 3d 08 9f 15 3c 15 ea 0f 3d
       -0.03572428 0.04360352 0.009132154 0.035135347
000250 e7 12 f2 3b 88 bc 3a 3d 20 0d c4 3c 34 e4 96 bc
       0.0073875072 0.045589954 0.02393204 -0.018419363
000260 e4 48 ae 3c e8 b5 43 3d 9d cd ea bc 07 39 10 3d
       0.021274991 0.0477809 -0.028662497 0.035210636
000270 06 72 1c 3d e8 f4 45 3d 3a 3a 52 3d c3 3a 54 bd
       0.03819468 0.048329264 0.05132506 -0.051813852
000280 ec 60 81 3c 34 9b 7e 3c 02 ba d8 bc 58 7a 5b bc
       0.015793286 0.015539933 -0.026455883 -0.013395868
000290 70 ba e2 bb c4 5c 51 3d a1 1c 4a bd 9e 8c 58 bd
       -0.0069191977 0.05111386 -0.04934371 -0.052868478
0002a0 56 56 b5 3b ca 46 98 3c fe c6 9a 3c 03 a8 44 bd
       0.0055339737 0.018588442 0.018893715 -0.04801179
0002b0 89 e2 ef 3c 24 4f f6 bc 91 27 53 3d 9f 05 4e 3d
       0.029282825 -0.030067034 0.051551405 0.05029833
0002c0 97 6f c1 3c 2e d6 b7 3c 7c 7d dc 3c 13 aa f0 bc
       0.02361278 0.022440996 0.026915304 -0.029377973
0002d0 a4 b5 95 3c 02 48 49 3d 39 35 54 bd ec 4e 36 3d
       0.01827509 0.049140938 -0.05180857 0.04450886
0002e0 df bf e8 bc 11 97 80 bc a8 a9 c6 bc 90 8b 3c bd
       -0.028411804 -0.015697034 -0.02425082 -0.046031535
0002f0 7b b1 8a 3c 44 8b 40 3d 12 db 90 bd 91 04 be 3c
       0.016930332 0.047007814 -0.07073034 0.023195537
000300 7b 93 5c bd c2 e9 3c bd a0 6c 6a 3d 99 36 3a 3c
       -0.053851586 -0.046121366 0.0572325 0.011365556
000310 8c ea 0f 3d b7 57 b2 3c 6b 8e ea bc 45 c2 9a 3c
       0.03513579 0.021770341 -0.028632363 0.018891463
000320 2e 84 55 3d e6 06 35 bd cc 0a 01 3c b0 f9 70 bd
       0.05212801 -0.044196032 0.007876109 -0.05883187
000330 e0 59 b9 bc 34 17 62 3d 26 32 60 3d 9a a8 1a 3d
       -0.022625864 0.05519791 0.054735325 0.037758447
000340 34 99 0c bd 96 d7 58 bd 85 39 50 3c 3c 25 82 bd
       -0.034325793 -0.052939974 0.012709026 -0.06354758
000350 f6 ba 73 3d 96 ad 65 3d 7c 45 6e bd fd d2 8c bc
       0.05950447 0.056073748 -0.058171734 -0.01719045
000360 e0 35 c2 bc 40 2f 3e bb b6 9d 15 bd 65 37 85 3a
       -0.02370733 -0.0029019862 -0.036527358 0.0010163604
000370 1b 29 ad bc cc dd ea 3c 34 fb e2 3c f8 65 e1 bc
       -0.021137765 0.028670214 0.027707674 -0.027514443
000380 4b 4c e9 bc e8 62 55 bd ac b6 44 bd ca ff 54 3d
       -0.028478762 -0.052096277 -0.048025772 0.052001752
000390 d0 bd 0c 3d 38 4a f0 3c 00 2b 55 3b 82 b0 69 bd
       0.034360707 0.029332265 0.003252685 -0.057053097
0003a0 43 56 73 3c 1f 30 ea 3c 57 f2 d1 bb 30 cd 98 bc
       0.014852109 0.028587399 -0.006407063 -0.018652529
0003b0 c0 7c 4d bd bf b6 9d bc 49 e5 19 bd 40 ac 90 3c
       -0.0501678 -0.01925218 -0.03757218 0.01766026
0003c0 c8 ab 66 bd c0 66 fa bc ec 51 7f bd 37 da 82 bd
       -0.056316167 -0.030566573 -0.062333986 -0.063892774
0003d0 8c b6 33 3d d0 80 a7 bc bd ea 68 bd 7a 8b b5 bc
       0.043875262 -0.020447165 -0.05686449 -0.022161234
0003e0 2f 29 82 bd e2 1d 17 3d 1a 88 08 3d e2 c4 5a bd
       -0.063555114 0.036893733 0.03333292 -0.05341042
0003f0 7c ac dd bc a2 6e 19 bd bb 64 a1 bc e8 ce 56 3d
       -0.027059786 -0.037459023 -0.019701352 0.052443415

fc2.bias f4 [256]
000000 a0 d7 ca 3a 1c 6f ff bc 00 a6 9d bc 05 5f 7e bd
       0.0015475638 -0.03118091 -0.019244194 -0.062102336
000010 4a c0 22 3d c5 25 f1 bc eb c9 40 3d 58 c7 50 bd
       0.039734162 -0.029436955 0.047067564 -0.05097136
000020 32 98 0b bd a3 a0 10 be 56 aa f8 bd e7 21 c5 3d
       -0.03408069 -0.14123778 -0.12141864 0.09625607
000030 e3 f0 27 bc 4f 3e 67 3d 50 8c c2 3b d6 5c b7 3c
       -0.010250303 0.056455906 0.0059371367 0.022383135
000040 3e 29 51 3d c6 c0 0f 3d 27 22 3c 3c c2 17 01 bd
       0.051064722 0.035095952 0.011482752 -0.031516798
000050 cc 8c ee 3d 33 4a fd 3d c2 e6 5f bd 42 00 38 3d
       0.116479486 0.12367668 -0.054663427 0.04492212
000060 38 02 2a 3d 14 f7 2d bd b5 bb 30 3e 55 6c ab bd
       0.041506022 -0.04247196 0.17259105 -0.08370272
000070 90 5c 51 3c a0 d8 2e 3c ca 40 88 bd 38 c7 77 3d
       0.012778416 0.010671765 -0.066529825 0.060492724
000080 84 f4 7a bd e8 7f 6b bc bd 75 0a be 50 2a 90 3d
       -0.061268345 -0.014373757 -0.13521476 0.070393205
000090 b7 d8 fc 3c fc f3 b6 bc 24 3d 86 3d 73 3d 8e 3c
       0.030865056 -0.022333138 0.065546304 0.017363286
0000a0 5f ab f8 3d 34 38 f4 bc 99 fe 91 3d 01 38 40 bd
       0.121420614 -0.029811956 0.07128639 -0.04692841
0000b0 20 71 4c bd b5 e9 49 bd 68 1b 04 3d 57 1f 77 3c
       -0.049912572 -0.049295146 0.0322527 0.015083156
0000c0 5e 8d 6e 3d 6f 4b 0a be 43 bc 51 bd 52 37 56 bd
       0.058240287 -0.13505338 -0.05120493 -0.05229885
0000d0 dd ad b6 3d 04 59 d6 bc 95 f2 fa 3d 50 b6 f0 bc
       0.089198805 -0.026165493 0.122533 -0.029383808
0000e0 cf 41 30 bd a9 0f c0 3d dd 1b b5 3d d8 8b fb bc
       -0.04303151 0.09377987 0.08843205 -0.030706331
0000f0 b8 9c 12 3d 70 61 12 bc 50 44 6a 3d 88 4a 2b 3d
       0.03579399 -0.008934364 0.057194054 0.041819125
000100 e6 00 5c bc 55 c8 f2 3c f7 73 d5 bd f0 ab 46 3d
       -0.013427949 0.029636541 -0.10422509 0.048503816
000110 f9 5b a4 bd 60 0f b9 3b 36 42 37 bd 70 5d cc 3c
       -0.08025355 0.005647585 -0.044740878 0.024946898
000120 e5 e5 9e bd b6 f2 64 bd 80 f0 5c bc fd bf 40 bd
       -0.07758693 -0.05589553 -0.013485074 -0.047058094
000130 34 b5 29 3d 9d 5b cb 3c 00 2b 17 3b 4c b9 62 3d
       0.041432574 0.024823958 0.0023066401 0.055352494
000140 c9 39 ee bc ba 4e 86 3d d6 d4 73 bd 94 23 d4 3d
       -0.029080288 0.06557985 -0.059529148 0.103583485
000150 7a 34 2c bd 68 4f 9c 3c 0e 5e 83 3d 58 17 5a 3d
       -0.042042233 0.019080833 0.06414424 0.05324492
000160 7b cb 5c bc ad 7b 27 3e 50 e7 0c bd 94 4b cc bc
       -0.013476248 0.16355772 -0.034400284 -0.024938382
000170 00 fd 66 3c 62 07 2e bd 54 f9 a5 3c 78 5b 26 bc
       0.014098406 -0.04248751 0.02026049 -0.010153644
000180 c7 60 96 bc e0 09 35 3d 8a 82 17 3c 9b 6e 02 bd
       -0.018356694 0.04419887 0.0092474315 -0.031843763
000190 b4 75 84 3d f4 7a 63 bd 2a 39 b5 3c 35 47 ae bd
       0.064677626 -0.05553718 0.022121985 -0.085096754
0001a0 34 94 56 3d 9e 95 40 bd c8 4e 0f bc 1b 17 a7 3d
       0.05238743 -0.047017686 -0.00874681 0.08158704
0001b0 5a 79 3c 3d b7 db 8a 3c e0 9a 23 bc 90 2f 7d bc
       0.046014167 0.016950471 -0.009985656 -0.015453234
0001c0 27 14 af bc a1 c6 61 3c 2c 92 e0 bc 42 e5 b9 3c
       -0.021371914 0.013780267 -0.02741345 0.022692326
0001d0 1c 95 e8 bc 4c 04 c7 bd b8 21 26 3d 17 7a a8 3c
       -0.028391413 -0.097176164 0.0405595 0.02056603
0001e0 d6 a0 03 bd dc a9 ff 38 ba 34 14 3d 5d 02 05 be
       -0.032135807 0.00012190986 0.036183096 -0.12989183
0001f0 90 30 e3 bb 48 1d 6f bd bd 12 e9 bd b7 14 c2 3a
       -0.0069332793 -0.058377534 -0.11380527 0.0014807199
000200 0c 5e 27 bd be db 48 bd 49 db d9 3a 14 ed 7b bd
       -0.040861174 -0.049037687 0.0016621138 -0.061505392
000210 d3 a0 c5 bc 41 f3 9f 3c 9f cb 03 3e c2 68 1b bd
       -0.024124539 0.019525172 0.12870644 -0.0379417
000220 c5 37 6b bd ad 43 87 bd 36 a6 98 3d 19 e1 1e 3d
       -0.057426233 -0.06604705 0.07453577 0.03878889
000230 58 22 57 3c c7 bb b1 3d 94 55 69 bd ce fa a3 bd
       0.013130747 0.08678394 -0.05696638 -0.080068216
000240 d0 7a b3 3c a6 7f a7 bd 20 9c 58 bd 4d 15 fe 3c
       0.021909148 -0.08178644 -0.052883267 0.031016016
000250 cf 6d 5a 3d dc 58 13 bd c0 ec 65 3c e4 f8 59 3d
       0.053327378 -0.035973415 0.014033496 0.053215876
000260 a5 cf f4 3d 9c 91 0a 3b 56 4c 2f bd 63 cc ce 3a
       0.119536676 0.002114392 -0.04279741 0.0015777465
000270 80 6a 02 bc f6 88 8e bc 8e 77 e4 bc 60 73 8d 3b
       -0.007959962 -0.017399292 -0.02788904 0.0043167323
000280 39 9b 68 3d 5b 8d f9 bd 50 58 be 3c 07 bd 62 bd
       0.056788657 -0.121851645 0.02323547 -0.05535605
000290 95 92 22 3e 4d 69 11 bd b0 e3 6d bc 04 70 1f bd
       0.15876229 -0.035500813 -0.014519617 -0.038925186
0002a0 30 8f cb bb 18 5e 12 be da 32 57 3d e8 0f 42 bd
       -0.0062121376 -0.14293706 0.05253873 -0.04737845
0002b0 a2 41 b3 bd 09 f0 9a bd 6c 4f df 3c f0 a9 ed 3b
       -0.08752753 -0.07565314 0.027259551 0.007252924
0002c0 94 c7 1b bd 92 2a 46 3d 09 c8 99 3c b4 6d 18 3d
       -0.03803213 0.048380442 0.018772142 0.037213996
0002d0 1e 46 fa 3c d4 ad ba 3d 92 af 04 bd 6c 90 08 3d
       0.030551013 0.09115186 -0.032394 0.033340856
0002e0 72 14 0f be 52 1c d4 3d 51 be a5 bd f6 7e 01 3d
       -0.13972643 0.10356964 -0.080929406 0.03161522
0002f0 06 cd 7c bd 06 f9 62 bd f9 63 87 3c 28 87 78 3d
       -0.061718963 -0.05541327 0.016527163 0.06067577
000300 74 ab fb 3d 72 dc b2 bd a0 1e 4f 3c 65 bb e9 3d
       0.122885615 -0.08733453 0.012641579 0.11412696
000310 f4 26 8f bc 2b 1e d5 bd 72 66 40 bd 25 55 54 bd
       -0.017474629 -0.10406145 -0.0469727 -0.051839013
000320 06 e8 6f 3d 88 3d a6 3c 14 83 14 bd 4b d0 74 bd
       0.058570884 0.020293012 -0.03625782 -0.059768956
000330 f0 36 68 bc f8 1d 27 bc ce 52 3e bd d8 96 32 3d
       -0.014173254 -0.010200016 -0.046465687 0.043600887
000340 9c 8e 4f bd 6d 90 bc bc 60 14 69 3c dc 84 79 bd
       -0.050673112 -0.023018086 0.014226049 -0.06091772
000350 c3 d7 1c 3d 3e b8 26 3d 0c 6f 26 3d 9c 37 24 bc
       0.038291704 0.04070305 0.040633246 -0.010023024
000360 92 46 94 3b 20 57 3a 3b 9a f0 3b 3d 58 12 0b 3d
       0.004525014 0.0028433278 0.045883752 0.03395304
000370 5a e4 72 3d 08 84 ad bd 58 da 54 3d 2e 2a 3b 3d
       0.059299804 -0.084724486 0.05196604 0.045694523
000380 ad bc ac bd 54 74 93 bc a0 62 93 bd 72 60 dc 3c
       -0.084344245 -0.017999806 -0.071965456 0.026901457
000390 ae 10 26 bd 23 ef e3 bc 50 f0 55 3c 84 8b be 3c
       -0.04054325 -0.02782399 0.013057783 0.023259886
0003a0 a5 88 55 bd fe cb 44 3d 70 5e e9 3c 02 5b 1f 3d
       -0.052132268 0.048046105 0.028487414 0.03890515
0003b0 82 23 7d bd 80 14 62 3b 21 e3 cb 3d 14 98 c6 3c
       -0.06180144 0.0034497082 0.09955431 0.024242438
0003c0 b6 42 d0 3c 98 cb 5b 3d e3 88 08 3e 1f d6 bd bc
       0.025422435 0.05366096 0.13333468 -0.02317339
0003d0 08 8b 40 3d b3 69 ee 3c 37 29 9b ba 5f 5c a3 bb
       0.04700759 0.029103136 -0.0011837845 -0.0049853767
0003e0 e8 fa 06 ba d0 c5 d8 bb 91 9b 5f 3c f8 ea 02 bd
       -0.0005149082 -0.006615378 0.01364793 -0.031962365
0003f0 e3 99 81 bd 84 61 c4 3c 95 6a 3c be 7e eb 73 bd
       -0.0632818 0.02397228 -0.18400033 -0.059550755

mean_linear.weight f4 [2, 256]
000000 3b d5 0d 3c 80 c0 15 ba e8 a8 63 bd 3a cb 3b 3d
       0.008656795 -0.00057125837 -0.055581003 0.04584811
000010 d5 04 22 bd 11 1c 5d bd d7 d4 44 3d 6f 60 27 3c
       -0.03955539 -0.053981844 0.048054542 0.010215863
000020 20 40 2c bc 64 13 8c 3d d4 ab db 3c 9e 23 b8 bc
       -0.0105133355 0.06839636 0.026815332 -0.022477921
000030 93 dc d8 3c 33 26 6c bd ec 7c d0 3c c2 64 a0 3c
       0.026472365 -0.057653617 0.025450192 0.019579295
000040 d3 72 24 3b 00 68 34 bc b4 4f 32 bb 1e b9 23 3d
       0.0025092855 -0.011011124 -0.0027208151 0.039971463
000050 4c ab 58 bd a2 e3 b2 bc 04 26 55 b9 a0 cd 17 3b
       -0.052897736 -0.02183706 -0.00020327425 0.0023163334
000060 79 7b 20 bd b8 0b 10 3c 5e 3e a6 bd 3c 22 3f 3d
       -0.039180253 0.0087918565 -0.08117364 0.046663508
000070 c8 e4 b2 bc e8 9b 3a bd 2e 7e 46 3d 04 2d 9e bc
       -0.021837607 -0.04555884 0.048460178 -0.019308574
000080 60 85 1d bb 6e 25 52 3d ea 03 8b 3d 2a 03 a1 bc
       -0.0024035797 0.051305227 0.06787856 -0.019654829
000090 3b b1 e4 3c 4f 4a 51 3b 14 04 48 bd 33 46 34 bd
       0.027916541 0.003193516 -0.048832014 -0.04401226
0000a0 2e 4d 40 bd c8 bd 48 3d 63 a6 22 bc cf 7a 03 3d
       -0.046948604 0.049009115 -0.009927365 0.03209954
0000b0 a6 6b 2b bd 7b 03 13 bd 08 8d 9c bc 52 3d 6a 3d
       -0.04185071 -0.03589199 -0.019110218 0.057187386
0000c0 50 a3 b0 bc 7b d4 28 3d 62 4b c1 3c 5a 50 63 3d
       -0.021562248 0.041218262 0.023595516 0.05549655
0000d0 79 68 93 3c 80 67 2f bc 76 a1 7f bc 6e f1 43 3d
       0.017994152 -0.010705829 -0.01560246 0.047837667
0000e0 fe b5 5c bc 77 ec f9 bc 7b 07 89 bd 8c 2b 9b 3c
       -0.013471125 -0.030508263 -0.0669088 0.018941663
0000f0 a4 f8 d0 bc a4 a6 3e bd 84 21 c7 3c 49 3d 41 3d
       -0.025509186 -0.04654564 0.024307974 0.047177587
000100 44 fc 68 3d cd 2b c3 bc 62 e7 6a 3d 97 43 63 3d
       0.056881204 -0.023824597 0.05734957 0.05548438
000110 89 1a 00 3d f6 8c 73 bd 70 bc 53 bc 4a 50 25 bd
       0.031275306 -0.059460603 -0.012923345 -0.040359773
000120 69 3e 46 3d 29 44 44 3d 42 7f 0f bd 95 fd 62 3d
       0.048399363 0.047916565 -0.035033472 0.055417616
000130 d5 3a b8 3c 41 c1 96 3c 60 18 3a 3c be 68 6f 3c
       0.02248899 0.018402698 0.0113583505 0.014612375
000140 41 01 5c 3d 34 ee b5 3c 50 d4 89 3b 21 6c 63 bd
       0.053712133 0.02220831 0.004206218 -0.05552304
000150 e0 78 ab bb 76 84 b9 bc e0 ab 31 3d c0 a3 9c bc
       -0.0052329153 -0.02264617 0.043376803 -0.01912105
000160 9c 52 32 3d ac 0a 2e bd 60 37 46 3d 02 2b 3a 3d
       0.043535814 -0.042490646 0.048392653 0.04545117
000170 8a 97 0a bd 07 dc 18 bc 61 3c 30 3d ac 0c 51 bd
       -0.033835925 -0.009329802 0.04302633 -0.051037475
000180 2f b4 35 3d 88 af fb 3b 0b c1 a0 3c 50 f6 d4 bb
       0.04436129 0.007680837 0.0196233 -0.0064990893
000190 ee 69 1f bd be 51 35 3d a2 fe 09 bc fc ca 06 b7
       -0.03891938 0.04426741 -0.008422526 -8.034283e-06
0001a0 e6 f8 67 3c f6 18 50 3d c0 52 3b bc 4b 3c 8f bd
       0.014158463 0.050805055 -0.011433303 -0.06993922
0001b0 a0 1d 09 3b ee 7b dd bc f0 08 40 bc 10 d7 fd 3c
       0.00209222 -0.027036633 -0.011720881 0.030986339
0001c0 3b ab 16 3d f0 f4 6f bc e8 23 8c 3c ac c7 9b bc
       0.03678439 -0.0146458 0.017106965 -0.01901611
0001d0 5b 1c b8 3c f9 fb 45 3d 50 cc 2e bc 54 a2 8f bc
       0.022474458 0.048336003 -0.010668829 -0.017533459
0001e0 31 b3 42 3d 34 bc 51 3d 10 03 62 bc b7 b0 89 3c
       0.04753417 0.051204875 -0.0137946755 0.016807897
0001f0 d2 42 14 3d 34 aa 06 bd fd ae be ba 19 68 3f 3d
       0.036196537 -0.032877162 -0.0014548 0.046730135
000200 d8 e6 f7 bc 88 30 e0 3c 34 08 22 3c f8 8b 32 3c
       -0.030261442 0.027366892 0.009889651 0.010897629
000210 20 8d e8 bc 43 4b 73 3c 78 36 66 bd d8 8b 6e 3d
       -0.028387606 0.014849487 -0.05620429 0.058238834
000220 c3 e7 6e bd a3 9a a8 3c 9b 06 f6 bc 27 33 27 3c
       -0.058326494 0.020581549 -0.030032447 0.010205067
000230 06 cb 12 bd ac a1 43 bd 40 28 ee 3b c0 11 c8 3b
       -0.03583815 -0.047761604 0.007267982 0.0061056316
000240 70 82 1f bd 50 f1 31 3d 65 7a 1c 3d 94 0d df bb
       -0.038942754 0.043443024 0.038202662 -0.0068070386
000250 cb bc 38 bd aa 68 22 3d a8 d6 61 bc 40 f7 8b ba
       -0.045101922 0.039650597 -0.013784088 -0.0010678545
000260 e1 da 65 bd b9 01 dc ba 3e 10 23 3c 4b 56 b9 bc
       -0.056116942 -0.0016785181 0.009952603 -0.022624156
000270 68 f9 cc 3c 55 e3 3c 3b 70 b3 5d 3d ac bb 6b 3d
       0.02502127 0.0028822024 0.054126203 0.057552025
000280 77 ae 0f bd 4c 73 04 3d 53 92 01 bd c7 af 3b 3d
       -0.035078492 0.03233652 -0.031633686 0.04582193
000290 f1 e3 4f bd 6a f9 81 bb a0 e4 3b 3c f0 db bf bb
       -0.05075449 -0.0039665 0.011468083 -0.005855076
0002a0 3e 8a 3a bd b7 95 ce 3c 6f 92 07 bd 48 b1 e7 3b
       -0.045541994 0.025217874 -0.033098634 0.007070694
0002b0 26 1b 85 3d b6 cc 70 bc 30 44 33 3d 3c f6 a3 3c
       0.06499319 -0.014697244 0.0437662 0.020014875
0002c0 37 2b af bc 46 5b 89 bc db 05 57 bd 46 81 36 3d
       -0.021382911 -0.016767155 -0.05249582 0.04455688
0002d0 80 aa c6 3b d0 8d 29 bd a8 5c db bc dd 8b ea 3c
       0.0060628057 -0.04139501 -0.02677758 0.028631145
0002e0 c7 21 50 3c f8 2a cf bc 57 67 0a 3c 60 69 17 3b
       0.012703366 -0.025289044 0.00844749 0.002310358
0002f0 c8 e3 d7 3c 2f 8f 93 3c fb 19 ab bc a0 94 52 3d
       0.026353732 0.018012611 -0.020886412 0.05141127
000300 ee bd a5 bd 16 33 3c 3d 1b e5 bd 3c 1b 05 40 ba
       -0.08092867 0.045947157 0.023180535 -0.00073249795
000310 b7 a3 e6 bc b6 cd 1e 3d 53 e1 16 3d c0 24 23 3d
       -0.028154237 0.0387704 0.03683598 0.03982997
000320 d8 ff b0 3c c0 59 56 bd a4 67 cc 3c 73 c3 d8 bb
       0.02160637 -0.052331686 0.024951763 -0.0066150962
000330 a8 3a 31 bd 20 a5 7e bb e5 e0 cb bc 54 78 77 3d
       -0.04326883 -0.0038855746 -0.024887512 0.06041749
000340 bc 13 98 bc 91 a4 bd 3c a0 dc be 3c 16 c1 7b bd
       -0.018564098 0.02314976 0.023298562 -0.061463438
000350 7f f7 e3 bc c8 37 6e 3c fa b8 e7 3c 03 9d 34 bd
       -0.027827976 0.0145396665 0.028286446 -0.04409505
000360 e5 08 0d 3d 84 58 58 bd 80 23 66 bc d0 25 a4 bb
       0.03443231 -0.05281879 -0.01404655 -0.0050093904
000370 8e aa 28 3d 8a 8c 3e bb 73 d3 47 bd 18 e6 08 bc
       0.04117828 -0.0029075467 -0.048785638 -0.00835564
000380 5b fc 71 3c ac ec ea bc 43 73 36 3d 1e 4c 6e bd
       0.014769639 -0.028677307 0.044543516 -0.05817806
000390 63 29 92 bb db 8f 93 3c c8 68 3b bd 20 50 cb bc
       -0.0044605 0.018012932 -0.045754224 -0.02481848
0003a0 a2 67 c8 3c a0 f2 71 bd 99 1c 25 3d 40 58 08 3c
       0.024463478 -0.059069276 0.040310476 0.008321822
0003b0 0f 92 a8 3c e4 e3 3a bd 14 8a c4 3b 40 21 9c bb
       0.020577459 -0.04562749 0.0059979055 -0.004764706
0003c0 33 a9 df b9 fc da af bc 0f f2 59 bd 52 0d 32 3d
       -0.00042659938 -0.021466725 -0.05320936 0.043469734
0003d0 c0 4e 94 bc 0b 3e 8f 3c 58 12 32 3d 9a 41 60 3d
       -0.018103957 0.01748564 0.043474525 0.054750063
0003e0 a9 8c 5e bc 78 fa 89 bc f7 91 77 b9 16 2c 42 3c
       -0.013583341 -0.016843066 -0.00023610132 0.011851331
0003f0 65 66 47 bd be 48 7e bd 13 4f ac 3d 98 43 a5 3c
       -0.048681635 -0.06208109 0.0841352 0.020173833

mean_linear.bias f4 [2]
000000 b4 73 9e bd 3f 8c c3 3d
       -0.07736912 0.09548234

log_std_linear.weight f4 [2, 256]
000000 1c c3 59 3d 7c 25 0e bd 6c 21 e7 3c aa cb e1 bc
       0.053164586 -0.034703717 0.028214179 -0.027562935
000010 c3 93 bc bc 15 33 15 3d 09 34 34 3d bc d2 a3 3c
       -0.023019677 0.03642567 0.043994937 0.019997947
000020 d0 47 34 bd 81 2f 4d 3d 7c 82 50 3d 73 b6 16 bd
       -0.0440138 0.05009413 0.05090569 -0.03679509
000030 b6 8d 33 bd 09 95 8f 3b 28 2e 7c 3d 64 ed 3e 3d
       -0.043836318 0.00438178 0.061567456 0.046613112
000040 d6 13 76 bb 34 90 4d bd 67 aa 69 3d 30 af ea bc
       -0.0037548444 -0.05018635 0.057047274 -0.028647989
000050 4d ee 33 bd 85 fe 75 bd 82 4e f0 3c 84 81 d0 3c
       -0.043928433 -0.060057182 0.02933431 0.025452383
000060 34 c1 b0 3c 8e 4b 09 bd 4f a1 76 3c a8 e1 f2 bc
       0.021576501 -0.03351932 0.015053107 -0.029648617
000070 8a 71 a2 bc e7 b7 cd 3c e8 03 b0 bc f8 84 56 3d
       -0.01982953 0.025112106 -0.021486238 0.052372903
000080 d4 e9 45 bd 98 a4 7e bd 56 8a 23 bd d3 80 b1 3c
       -0.0483187 -0.062168688 -0.03992685 0.021667873
000090 ad 24 e0 bc f4 40 36 bd 04 08 08 3d 2e 44 5e 3d
       -0.027361238 -0.044495538 0.03321077 0.05426424
0000a0 13 74 06 bc 31 12 2c 3d 8d 7b 75 bd 61 c4 4c 3d
       -0.008206385 0.042009536 -0.05993228 0.04999197
0000b0 be 2e 3e 3d 79 38 14 3c 6e 86 36 bd e1 e7 1f bd
       0.046431296 0.009046667 -0.044561796 -0.039039496
0000c0 12 52 7a 3d d9 c2 3a 3c 8d 07 1f bd ec b3 62 bd
       0.061113425 0.011398994 -0.03882556 -0.055347368
0000d0 0e 85 3e bd f4 0a 02 bd e2 19 91 3a 6c 28 c5 3c
       -0.04651361 -0.031748727 0.0011070336 0.024067126
0000e0 25 dc da 3c d9 02 7a bd 7f 3d 81 ba aa 9e 4b 3d
       0.026716301 -0.061037872 -0.0009860246 0.04971186
0000f0 d4 1c 5c bd a4 21 69 bd 70 23 18 3d 06 54 82 3c
       -0.05373843 -0.056916848 0.03714317 0.015909206
000100 44 52 fb bc 18 2f 4f 3d f0 71 7b 3d d7 5e 02 bc
       -0.030678876 0.05058202 0.061387956 -0.007957182
000110 88 6d 60 3d 10 27 9e bc dc 30 bb bc a4 0c 42 bd
       0.054791957 -0.019305736 -0.022850446 -0.047375336
000120 15 fe 1d 3d 48 14 16 bd 60 ae 43 3b 1f 43 10 3c
       0.03857239 -0.036640435 0.0029858574 0.008805065
000130 e9 21 66 3d 97 69 65 bd 70 b0 bf bb 46 00 33 bd
       0.056184683 -0.0560089 -0.0058498904 -0.043701433
000140 1c cf 71 3d 54 57 20 bd 7e ae 43 bd 8d c9 3d 3c
       0.059035406 -0.039145783 -0.04777383 0.011583698
000150 28 79 64 3c 20 03 32 bd 43 ea 54 bd 3e 20 49 bd
       0.0139449015 -0.04346001 -0.051981222 -0.049103014
000160 e9 7a 15 bd d5 54 0d bc ea f2 7a bd 88 43 ed bc
       -0.03649417 -0.008626183 -0.061266817 -0.028962865
000170 60 58 46 bc ee 16 5a bc 82 1a a3 3c 10 e1 c4 3b
       -0.012106031 -0.013311131 0.0199101 0.006008275
000180 01 32 c1 bb 2e bc 57 3d 14 9b 62 bd 8b ad 2b 3d
       -0.0058958535 0.052669697 -0.055323675 0.04191355
000190 9c 7c a6 bc c2 8b bf 3c bb a8 47 bc aa 42 f3 3c
       -0.02032309 0.023382071 -0.012186225 0.029694874
0001a0 35 a0 76 3d 30 dd 69 3d b0 84 21 3d 7a 17 26 3d
       0.06021138 0.057095706 0.03943318 0.040549733
0001b0 3c 4d 08 3d 8c 04 bd bb c0 85 d6 3a 18 bf 0e 3c
       0.03327678 -0.0057683643 0.0016366765 0.0087125525
0001c0 12 b8 14 bd 38 74 44 3c c0 7d b9 3b f4 53 8a bc
       -0.036308356 0.011990599 0.0056607425 -0.016885735
0001d0 81 49 35 bd b4 61 d7 bc c1 c1 ef 3c 85 e9 90 3b
       -0.044259552 -0.026291706 0.029267194 0.004422369
0001e0 07 7b 6c 3d b5 6b 63 bd 0a 9a 23 bd 64 20 c2 3c
       0.057734516 -0.05552264 -0.039941825 0.023697086
0001f0 80 23 a2 bc d8 bf bc bc 4b 67 b9 3c 6b ba ee 3c
       -0.019792318 -0.023040697 0.022632262 0.029141625
000200 40 32 6d bd 28 7c d7 3c fd d3 3f 3d 38 3f 87 3c
       -0.05790925 0.02630432 0.046833027 0.016509637
000210 2d 8d 88 3b d8 4b 0f 3d ee 57 73 bc 04 70 34 3d
       0.00416722 0.03498444 -0.014852507 0.04405214
000220 2d 7d 4f 3d db ee 22 3d f5 4d 8a 3c 47 97 59 3c
       0.050656486 0.03977857 0.016882876 0.013280696
000230 74 b7 e3 3c ab da 19 bb b0 96 b5 3b dd 7f 37 3d
       0.027797438 -0.0023476284 0.005541645 0.044799674
000240 fe 32 40 3d 83 4a 10 bd 79 d0 6d bd 14 f4 75 3c
       0.04692363 -0.03522731 -0.058060143 0.015011806
000250 d5 30 53 3d 20 4e 0a 3b 00 00 21 38 3c db b5 bc
       0.05156024 0.0021103695 3.838539e-05 -0.022199266
000260 3c 3a d1 3c be 51 9f bb 69 3b 0e 3d 60 41 12 3d
       0.025540464 -0.0048620393 0.034724627 0.035706878
000270 2e 6a 19 3d 41 2b 4a 3d ea 13 72 bd f2 fe 75 3d
       0.037454776 0.049357656 -0.059101023 0.060057588
000280 8f 49 92 bb 08 03 91 3b 9e c2 71 3d e2 39 68 3d
       -0.0044643353 0.00442541 0.059023492 0.056695826
000290 e6 1f 88 3a 81 1f 36 3d 30 51 7a bc 82 46 6b bd
       0.0010385483 0.04446364 -0.015278146 -0.05744029
0002a0 98 74 50 3d f6 f5 d2 bb 55 99 1e bd 20 bf f5 bc
       0.050892442 -0.0064380122 -0.038720448 -0.029998362
0002b0 76 8c 03 bd 75 7e 34 3c 96 8e 6a 3d ce a3 1d 3d
       -0.032116376 0.011016478 0.057264887 0.038486294
0002c0 74 d3 f9 bc 8f 07 12 bd 55 a7 4f 3d 08 ca 48 3d
       -0.030496337 -0.03565174 0.05069669 0.049020797
0002d0 1d c3 6e 3d 02 cd 85 bc 78 8b 31 3c ce 34 fe bc
       0.058291543 -0.016333107 0.010836475 -0.031031039
0002e0 8a 99 2d 3d e7 bc e5 3c 32 7f 13 3d f0 b6 6e 3d
       0.042382754 0.028044177 0.036009975 0.05827993
0002f0 fa 4e 47 3d 2e f9 1d bc eb b3 28 bd ee 79 78 3d
       0.048659302 -0.009641929 -0.04118721 0.060663156
000300 c3 45 3c 3d 63 c0 93 bc 05 17 1b bd f9 f8 78 bd
       0.045964967 -0.018036073 -0.03786375 -0.060784314
000310 78 65 3b 3d 5c c4 fe 3c 56 7b df bc ed a9 22 3d
       0.045751065 0.03109949 -0.02728049 0.039712835
000320 1a c8 30 bd cd 1d 95 3b 72 4e 22 3d ec b8 eb 3c
       -0.04315958 0.0045506717 0.039625593 0.028774701
000330 40 e6 f4 3b a8 7c b1 3c 1f 94 2c 3d 74 4a 34 bd
       0.007473737 0.021665886 0.042133447 -0.044016317
000340 70 6a 9b bb d4 ef 0d 3d 2e 82 38 3d 7a 11 64 bd
       -0.004742913 0.034652546 0.045046024 -0.05568073
000350 8c 48 cf bb 00 88 0b b8 38 17 09 3d d3 83 fa bc
       -0.006325787 -3.3266842e-05 0.03346941 -0.030580437
000360 c3 be e6 bc 9a 3e 47 3d da 6e 73 bd 88 40 21 3c
       -0.028167134 0.048643686 -0.05943189 0.009842046
000370 32 d9 4c 3d 2f 57 1e 3d 10 f6 44 3b 66 e5 04 bd
       0.05001182 0.038657364 0.0030053891 -0.032445334
000380 15 e0 4d 3c 0c eb 30 bd 50 df e8 3b 93 3c 60 bc
       0.012565632 -0.04319291 0.007106699 -0.013686317
000390 81 4b 39 3d e8 21 67 3d ce 4a 33 bd 92 e7 13 bd
       0.04523802 0.05642882 -0.04377251 -0.036109515
0003a0 3a b3 d7 bc 00 7d c1 ba c2 f7 08 ba e6 d5 23 3d
       -0.02633058 -0.0014761984 -0.0005224907 0.03999891
0003b0 87 0e e7 3c 50 ea b0 3c a9 f9 86 bc b6 d2 77 3d
       0.02820517 0.021596104 -0.01647647 0.060503684
0003c0 bc 53 e9 bc 61 c9 55 3d 95 60 c2 bc cb 28 f4 bc
       -0.02848231 0.052194003 -0.023727695 -0.029804608
0003d0 bc 64 fb bc 76 7a ba 3c 72 57 5e 3b bb d2 fa bb
       -0.030687682 0.022763472 0.0033926633 -0.0076545156
0003e0 dc 14 d9 3c 5a 3f 5a 3d d3 c6 33 3b 26 94 21 3b
       0.026499204 0.053283073 0.002743174 0.0024654954
0003f0 f3 50 58 bc a3 f0 f1 bc 95 e6 9a 3c 24 59 d6 bc
       -0.013202894 -0.02953369 0.018908778 -0.026165552

log_std_linear.bias f4 [2]
000000 4b f5 ec bc 98 09 97 bd
       -0.028925559 -0.07374877
