sac_policy_vanet#1.pth (torch, 275716 bytes, 8 tensors)

fc1.weight f4 [256, 4]
0	0x3edadaee	0.42745155
1	0xbd5f939b	-0.054584127
2	0x3e9eb8b5	0.31000295
3	0xbe1e5f06	-0.15465936
4	0x3d069b00	0.032862663
5	0x3cd788fe	0.02631044
6	0x3e90a827	0.2825329
7	0x3cfd8774	0.030948378
8	0x3de4c910	0.11171162
9	0x3918fd06	0.00014590108
10	0xbf8ce6de	-1.1007955
11	0xbd17e33f	-0.037081953
12	0x3ecaeeba	0.3963526
13	0xbe5c1281	-0.21491434
14	0xbed41e0f	-0.41429183
15	0x3c917296	0.017754834
16	0x3de101f1	0.109866984
17	0x3e87602e	0.26440567
18	0xbe03adf6	-0.1285933
19	0xbd45227a	-0.048128583
20	0xbeb80ce6	-0.3594734
21	0xbe764534	-0.24049836
22	0xbedc0a90	-0.4297681
23	0xbe3dfcbc	-0.18553442
24	0x3db25494	0.08707538
25	0xbe7a4455	-0.24440129
26	0xbe8c941e	-0.27456754
27	0x3e6792fc	0.22614664
28	0xbeab55b5	-0.33463827
29	0x3e6a2321	0.22864963
30	0xbf961372	-1.1724684
31	0x3e0d154b	0.13777654
32	0x3f0f5012	0.5598155
33	0xbe9f3607	-0.31095907
34	0x3f33303d	0.6999548
35	0x3d08247e	0.033237927
36	0x3ce4c9d0	0.027928263
37	0x3d9d25f1	0.076732524
38	0xbf4bd11d	-0.79615957
39	0x3ccfc544	0.025362618
40	0x3d88decb	0.066831194
41	0xbec98c4a	-0.39364845
42	0xbe3605b6	-0.17775616
43	0x3e804ead	0.25060025
44	0xbe72a1ad	-0.23694487
45	0x3df3ef3d	0.119108655
46	0xbce8ecd5	-0.028433243
47	0xbd293741	-0.04131246
48	0xbe41e03e	-0.18933198
49	0x3e147b08	0.14500058
50	0xbf485793	-0.7825863
51	0xbf4f3b41	-0.8094979
52	0x3e91af25	0.28453937
53	0xbd8387b5	-0.064223684
54	0xbf133054	-0.5749562
55	0xbda36107	-0.07977491
56	0x3ebe2e33	0.37144622
57	0xbe160b8c	-0.14652842
58	0xbe6f5204	-0.2337113
59	0x3da09918	0.078417
60	0xbea40d4c	-0.32041395
61	0xbea959dd	-0.33076373
62	0xbdf249ea	-0.11830504
63	0x3e8946ba	0.26811773
64	0x3e1c2001	0.15246584
65	0xbdac495b	-0.08412429
66	0x3e92abbf	0.28646657
67	0x3d889fe0	0.06671119
68	0xbbb42edc	-0.00549875
69	0x3e474ca3	0.19462828
70	0x3ec63d54	0.38718665
71	0xbe0f8f71	-0.14019562
72	0xbe9c342c	-0.30508554
73	0xbdc71308	-0.09720427
74	0xbdefd3e0	-0.11710334
75	0xbe920eca	-0.28526908
76	0xbe83a66c	-0.25712907
77	0xbd549366	-0.051898383
78	0x3f377203	0.71658343
79	0x3d96ec26	0.073692605
80	0xbedef50a	-0.43546325
81	0x3ef078a2	0.46967036
82	0x3e8f0a7b	0.27937683
83	0xbf078316	-0.52934396
84	0x3eea6128	0.4577725
85	0xbee2fe4c	-0.44334638
86	0x3ee2497e	0.44196695
87	0xbe0330d4	-0.12811595
88	0x3dbcd1c8	0.092197
89	0x3e8fe909	0.2810748
90	0xbf59906b	-0.8498599
91	0xbeb3d1f1	-0.3512111
92	0x3dd86786	0.105666205
93	0xbe7415f0	-0.23836493
94	0x3f08c23c	0.5342138
95	0xbd3e8a8e	-0.046518855
96	0x3e160d1e	0.14653441
97	0xbe3470ce	-0.17621157
98	0x3f4017c6	0.75036275
99	0x3de9eb08	0.11421782
100	0xbe99eb84	-0.30062497
101	0x3e7411bb	0.23834889
102	0xbf169c0a	-0.58831847
103	0x3d3c58a4	0.04598297
104	0xbec4d29c	-0.38441932
105	0x3da3810b	0.07983597
106	0xbf1bcfa3	-0.60863703
107	0x3e9cbb12	0.30611473
108	0xbde9e140	-0.11419916
109	0xbd62db60	-0.055384994
110	0xbed2f6ec	-0.4120401
111	0xbee252b0	-0.4420371
112	0xbed9224c	-0.4240898
113	0xbebd741e	-0.37002653
114	0x3eead396	0.45864552
115	0xbe9a92a0	-0.3018999
116	0x3e2ffc73	0.17186145
117	0x3e29f9a0	0.1659913
118	0x3ec9d5c8	0.39420915
119	0xbea3aec5	-0.31969276
120	0x3eae487b	0.34039673
121	0xbe1d6054	-0.15368778
122	0x3ed7b8bf	0.42133138
123	0xbee366ce	-0.4441437
124	0xbe9b8c59	-0.30380514
125	0x3ef7a91b	0.48371205
126	0x3d8dffdc	0.06933567
127	0xbe715bd4	-0.23570186
128	0xbe11366d	-0.14180918
129	0xbd97f205	-0.074192084
130	0xbe4aeeab	-0.19817607
131	0xbdc9f513	-0.09861197
132	0x3e053203	0.13007359
133	0x3c8c8224	0.0171519
134	0xbea5184d	-0.32245103
135	0xbdf38ed6	-0.11892478
136	0x3e3d2ae8	0.18473399
137	0xbcc9e1eb	-0.024643859
138	0xbf82e89e	-1.0227239
139	0x3cc492b1	0.02399573
140	0xbd95ca64	-0.073139936
141	0x3dd26f47	0.10275131
142	0xbeb6828f	-0.35646483
143	0x3c6e1154	0.014530499
144	0x3e963bb5	0.29342428
145	0x3ec0ce38	0.37657332
146	0xbecba63f	-0.39775273
147	0xbe402c82	-0.18766978
148	0x3f05f151	0.52321345
149	0xbe2157cc	-0.15756148
150	0x3f5f21b8	0.87160826
151	0xbcb2faea	-0.02184816
152	0xbb8a89d6	-0.004227857
153	0xbe96a7ea	-0.29424983
154	0x3d8b32be	0.06796788
155	0x3e972d92	0.29526955
156	0xbee0c32d	-0.43898907
157	0x3e9b7aa0	0.30366993
158	0xbf959836	-1.1687076
159	0x3b4d0a08	0.0031286497
160	0x3e141647	0.14461623
161	0x3e49f437	0.19722067
162	0xbf1e5624	-0.6185019
163	0xbd9dc649	-0.077038355
164	0xbe956abc	-0.29182994
165	0xbee25bee	-0.44210762
166	0xbee5d959	-0.44892386
167	0x3ea09d85	0.31370178
168	0xbe47cb3b	-0.1951112
169	0xbd844975	-0.06459323
170	0x3ed7219c	0.4201783
171	0x3de33703	0.11094477
172	0x3e8a5fca	0.27026206
173	0xbe2f454a	-0.17116275
174	0x3f238c73	0.63886184
175	0x3ddeceab	0.108792625
176	0x3d82370c	0.063581556
177	0xbd06df3f	-0.032927748
178	0xbf7f643b	-0.99762315
179	0xbc3ef6ed	-0.011655551
180	0xbf1aad4b	-0.60420674
181	0x3dba7f7a	0.091063455
182	0x3eb48dcb	0.3526443
183	0x3e5d9841	0.21640112
184	0x3e65c2b9	0.22437562
185	0xbd920db3	-0.07131519
186	0xbf78e7d6	-0.97228754
187	0xbd1c064f	-0.038091954
188	0xbe71be5a	-0.2360777
189	0x3f11715f	0.56813616
190	0xbe493497	-0.19648968
191	0xbec1cb10	-0.37850237
192	0x3bd6b600	0.006552458
193	0xbeeae0aa	-0.4587453
194	0x3e1e8518	0.15480459
195	0xbc7d5880	-0.015462995
196	0xbef3df1c	-0.47631156
197	0xbe65d018	-0.22442663
198	0x3e271f14	0.16320449
199	0xbc6b7400	-0.014370918
200	0x3e2ae054	0.16687137
201	0x3da3dd01	0.080011375
202	0xbf94a193	-1.1611809
203	0x3dfa0874	0.122086436
204	0xbd6fca7b	-0.05854271
205	0xbea1360a	-0.3148654
206	0xbe4df743	-0.20113854
207	0x3e9736f4	0.29534113
208	0xbe8077dc	-0.25091445
209	0x3e82fb7f	0.255825
210	0xbf0e53f3	-0.55596846
211	0xbe1b36c1	-0.15157606
212	0xbe9c924a	-0.3058036
213	0xbecc67dd	-0.3992299
214	0xbf2d8456	-0.67780054
215	0x3dfb719b	0.12277528
216	0xbe40de3e	-0.18834779
217	0x3e4b39e3	0.19846301
218	0x3e17bb6a	0.14817587
219	0xbd69e835	-0.057106216
220	0xbf035730	-0.5130491
221	0x3e5b2d93	0.21404104
222	0x3e8deb75	0.27718702
223	0x3d12dbcf	0.035854157
224	0x3db0236b	0.086005054
225	0x3e8d5d6a	0.27610332
226	0xbd135e85	-0.035978813
227	0xbed8b7ac	-0.4232763
228	0x3e4a5ad3	0.19761209
229	0x3e9fb3bd	0.31191817
230	0xbdbc9c35	-0.092094816
231	0xbe7a1ccd	-0.24425049
232	0xbe5a0af2	-0.21293238
233	0x3ddd76b9	0.1081366
234	0xbe4c22d2	-0.19935158
235	0x3e7bb870	0.24582076
236	0x3efb2c92	0.49057442
237	0x3e8d4104	0.27588665
238	0x3e76dfe6	0.24108848
239	0xbe977477	-0.29581043
240	0x3e99d6fc	0.30046833
241	0xbea9e87a	-0.33185178
242	0xbeac684a	-0.33673316
243	0x3e564cdd	0.20927759
244	0xbee74124	-0.45166886
245	0xbe691864	-0.2276321
246	0xbef9bc24	-0.48776352
247	0xbe8ab5fc	-0.27091968
248	0xbeffc25e	-0.49952978
249	0x3e858cc3	0.26083955
250	0x3eeb8de2	0.46006685
251	0xbcee2f97	-0.029075427
252	0xbeb2c1ae	-0.3491339
253	0xbeb3a86b	-0.3508943
254	0x3e9c8643	0.30571184
255	0x3ddb3172	0.1070279

fc1.bias f4 [256]
0	0x3f40abcd	0.7526215
1	0xbf52068f	-0.8204126
2	0xbe841fc4	-0.25805485
3	0x3f1457ce	0.5794648
4	0xbe74d690	-0.23909974
5	0xbe254cf0	-0.1614263
6	0xbf2750d2	-0.65357697
7	0x3ec00284	0.3750192
8	0x3f600732	0.8751098
9	0xbc9dd50a	-0.019266624
10	0xbed3aed4	-0.4134432
11	0x3f206e49	0.6266828
12	0xbea2adb7	-0.3177316
13	0x3ce92161	0.0284583
14	0xbf2f3de6	-0.68453825
15	0xbe434879	-0.19070615
16	0xbee9e8bb	-0.45685372
17	0x3e7aff7e	0.24511525
18	0x3ecf08d6	0.4043643
19	0x3ed9ef6d	0.4256548
20	0xbf0910e1	-0.5354138
21	0xbe416a3b	-0.1888818
22	0xbe6d76ec	-0.23189896
23	0x3eed9852	0.46405274
24	0xbe2bf975	-0.16794379
25	0x3f3fdfa1	0.74950606
26	0xbf4666c6	-0.7750057
27	0xbea2f25c	-0.3182553
28	0xbed188dc	-0.40924728
29	0x3e682256	0.22669348
30	0x3eab9508	0.3351214
31	0x3f40bac5	0.7528499
32	0x3e4ac6e6	0.19802436
33	0x3e898c96	0.2686507
34	0xbeabb94f	-0.33539817
35	0x3e8b67dd	0.2722768
36	0xbdcc8e89	-0.09988124
37	0x3f29f78b	0.66393346
38	0xbedb25c2	-0.42802244
39	0xbce28ccf	-0.027655033
40	0xbe98c4b8	-0.29837584
41	0x3e1feb9f	0.15617226
42	0x3f71525d	0.942663
43	0xbf0c11c2	-0.54714596
44	0x3ee0f88e	0.43939632
45	0xbe1373c4	-0.1439963
46	0x3e80c7c0	0.25152397
47	0x3d38ef34	0.045149997
48	0xbe688e58	-0.2271055
49	0xbe1f6dfc	-0.155693
50	0xbde531f2	-0.11191167
51	0xbf037d44	-0.51363015
52	0xbd7aa896	-0.061195932
53	0xbf2bb0c3	-0.6706659
54	0x3e09b5df	0.13448285
55	0x3f08776c	0.53307223
56	0x3bec8aeb	0.0072187087
57	0x3ef9f80b	0.48822054
58	0xbee410c1	-0.44544032
59	0xbec039e8	-0.3754418
60	0xbf81f0ab	-1.0151571
61	0x3dc7bb10	0.09752476
62	0xbe94c884	-0.2905923
63	0x3f3455c6	0.7044338
64	0x3c9e4340	0.019319177
65	0x3e6b9bf8	0.23008716
66	0xbee18032	-0.44043118
67	0x3f3abf6d	0.7294834
68	0xbc29412e	-0.010330481
69	0x3db72800	0.08943176
70	0xbdbdb22c	-0.09262499
71	0x3ecbf4a5	0.39835086
72	0xbe80fc7c	-0.2519263
73	0xbf254c9c	-0.6457002
74	0x3f1777d9	0.5916725
75	0x3a2eac0e	0.00066632114
76	0x3ec9d282	0.39418417
77	0xbf3c1adb	-0.7347848
78	0xbd8e1471	-0.06937493
79	0xbf1d7f98	-0.6152282
80	0x3f1dfd59	0.617147
81	0x3ddea23b	0.10870787
82	0x3efbdace	0.49190372
83	0xbe4a3dbb	-0.19750111
84	0xbec70b6d	-0.38875905
85	0xbe9e65cd	-0.30937043
86	0xbecfbc48	-0.40573335
87	0xbe80edb6	-0.2518136
88	0xbdf8f6d8	-0.12156457
89	0xbdb5a9e0	-0.08870292
90	0xbf477ef0	-0.77928066
91	0xbe00d1ab	-0.12579982
92	0xbe8b92ce	-0.2726044
93	0xbf1725b6	-0.5904192
94	0xbcf8b65e	-0.030360397
95	0x3e8247b0	0.25445318
96	0x3e7fa779	0.2496623
97	0xbed6e85a	-0.41974145
98	0xbec5f622	-0.38664347
99	0xbefbed7c	-0.49204624
100	0xbf725088	-0.9465413
101	0xbf17a560	-0.5923672
102	0xbef7bd22	-0.48386484
103	0xbedaef0f	-0.42760512
104	0xbd9ac051	-0.07556213
105	0xbeadabf8	-0.33920264
106	0xbddb260c	-0.10700616
107	0xbf514037	-0.8173861
108	0xbd70fa03	-0.05883218
109	0x3e4ac487	0.19801532
110	0x3e481a38	0.19541252
111	0x3f10fa6c	0.56632113
112	0xbebb0c0e	-0.36532634
113	0xbe026228	-0.12732756
114	0xbe4f5396	-0.20246729
115	0xbeee4496	-0.46536702
116	0xbf38ccee	-0.721877
117	0xbed1f11d	-0.41004267
118	0xbe80d5eb	-0.25163206
119	0xbeae05cb	-0.33988795
120	0x3e7fc043	0.24975686
121	0xbf3316e6	-0.69956815
122	0x3e874f8c	0.26427877
123	0x3f449765	0.7679351
124	0xbea1179e	-0.3146333
125	0x3f277a2a	0.6542078
126	0xbedd32b4	-0.43202746
127	0xbdac5250	-0.08414137
128	0x3e5e7c7f	0.21727179
129	0xbf04667b	-0.5171887
130	0xbef1d40b	-0.47232088
131	0x3dac6750	0.08418143
132	0x3dc540b0	0.09631479
133	0x3f277b89	0.65422875
134	0x3dabbec9	0.08385999
135	0xbe75323d	-0.23944946
136	0x3f4a803a	0.7910191
137	0xbf0f83ab	-0.56060284
138	0x3cce42a4	0.025178261
139	0xbf03a834	-0.5142853
140	0x3e984b60	0.29745007
141	0x3f195657	0.5989737
142	0xbdf8d818	-0.121505916
143	0x3e51b195	0.20477898
144	0x3e8a9c68	0.27072453
145	0xbe5f2928	-0.21793044
146	0xbee25a6d	-0.44209614
147	0x3e8c5cb9	0.27414492
148	0x3e038047	0.12841903
149	0xbee96824	-0.45587265
150	0xbdd78558	-0.1052348
151	0xbf0e357f	-0.5555038
152	0x3e9f8dce	0.31162876
153	0xbe66095a	-0.22464505
154	0xbf516b2d	-0.8180416
155	0xbecc08ac	-0.39850366
156	0xbf3653ec	-0.71221805
157	0xbf2afe31	-0.66794115
158	0xbe1a9cb8	-0.15098846
159	0xbd32a725	-0.043616433
160	0xbec113bc	-0.3771037
161	0x3f326200	0.69680786
162	0x3f0a4373	0.5400917
163	0xbe8fbef1	-0.28075364
164	0x3f5dd78c	0.86657023
165	0x3ea8cde5	0.32969585
166	0xbe4721df	-0.19446515
167	0xbec0780a	-0.37591583
168	0x3e5bebb9	0.2147664
169	0x3efa8ca3	0.48935422
170	0xbe8fe3be	-0.2810344
171	0xbef5c022	-0.47998148
172	0x3f21b392	0.6316463
173	0xbf32d12f	-0.6985044
174	0xbed03890	-0.40668154
175	0xbf3ca47a	-0.7368847
176	0x3db573f8	0.0886001
177	0xbf35e583	-0.7105333
178	0x3ef07f2b	0.4697202
179	0xbf3be334	-0.7339356
180	0x3f5498f1	0.8304587
181	0x3dd96561	0.106150396
182	0x3f215ad7	0.63029236
183	0xbdb627c8	-0.088943064
184	0x3e80765d	0.25090304
185	0xbe69d060	-0.22833395
186	0xbe76f7fd	-0.24118038
187	0xbf366e30	-0.7126188
188	0xbefc32b5	-0.49257436
189	0x3ed5737a	0.41689664
190	0xbe941fd3	-0.2893053
191	0xbe1f82a8	-0.15577185
192	0x3e49c508	0.19704068
193	0x3ed6f0da	0.4198063
194	0xbec9fe26	-0.39451712
195	0xbe64f9f2	-0.22360972
196	0x3f2c69fa	0.6734921
197	0xbe011699	-0.12606277
198	0x3f18ba2f	0.59659094
199	0x3ef2b221	0.47401527
200	0xbef568ce	-0.47931522
201	0x3f58c5b5	0.84676677
202	0xbceae407	-0.028673185
203	0xbf4e93b4	-0.8069413
204	0xbe0b106b	-0.13580482
205	0xbe095405	-0.13410957
206	0xbeeb1101	-0.4591141
207	0x3f13aa05	0.57681304
208	0xbf1b14a1	-0.6057835
209	0x3e7f30dc	0.24920982
210	0xbf2526c2	-0.64512265
211	0xbebeb837	-0.3724992
212	0xbca010a1	-0.01953918
213	0xbf77a7b3	-0.96740264
214	0xbeb79cad	-0.35861722
215	0x3e1ed332	0.15510252
216	0xbe3ba8af	-0.18326066
217	0x3f061d5b	0.5238854
218	0xbeb37f74	-0.35058177
219	0xbe2eab3d	-0.1705751
220	0xbeebddcb	-0.46067652
221	0x3cf07daa	0.029356796
222	0xbf4918c5	-0.7855342
223	0xbefccb13	-0.49373683
224	0xbd0f10b6	-0.034928046
225	0xbed2c09c	-0.41162574
226	0xbd36fd50	-0.04467517
227	0x3f39e1c7	0.72610134
228	0xbe139c3b	-0.14415066
229	0x3f43dfe1	0.7651349
230	0xbe602414	-0.21888763
231	0xbed1de4a	-0.40989906
232	0xbefcf4e6	-0.49405593
233	0xbf323e40	-0.69626236
234	0xbd648ffd	-0.05580138
235	0xbd023330	-0.031787097
236	0xbd927f72	-0.071532145
237	0x3c341022	0.0109901745
238	0xbe0eb35c	-0.13935608
239	0xbe6607e8	-0.22463953
240	0x3e78053e	0.2422075
241	0xbdea6b48	-0.114462435
242	0x3e9fe2b9	0.31227663
243	0x3e14ffa1	0.1455064
244	0x3edf257b	0.43583283
245	0xbe48ce84	-0.1961003
246	0x3ec6531d	0.38735285
247	0x3f1c90a9	0.61158234
248	0x3d0e4839	0.034736846
249	0xbeb38a58	-0.35066485
250	0xbf0fab2a	-0.5612055
251	0x3f45aaf1	0.7721396
252	0xbd7adc8b	-0.061245482
253	0x3e63a4ca	0.22230831
254	0x3daf8ceb	0.085718
255	0xbf3b14e4	-0.7307875

fc2.weight f4 [256, 256]
0	0x3a6ef88c	0.0009116016
1	0x3d33fa00	0.04393959
2	0xbe9afd1f	-0.3027124
3	0xbe8c5ceb	-0.2741464
4	0x3dc17b0e	0.09447299
5	0xbd65834c	-0.056033418
6	0x3e27aae2	0.1637378
7	0xbba13e86	-0.0049207835
8	0xbf19033a	-0.5977055
9	0x3d911ce5	0.07085589
10	0xbec904b5	-0.39261404
11	0xbcc8f391	-0.024530204
12	0x3ca565e5	0.020190189
13	0xbc371ffd	-0.01117706
14	0xbe9b5051	-0.30334714
15	0xbe291542	-0.16512015
16	0xbe88d8a9	-0.267278
17	0x3da5df4f	0.08099233
18	0xbd468564	-0.048467055
19	0xbf71a874	-0.94397664
20	0xbe14db8f	-0.1453688
21	0xbe05de66	-0.1307312
22	0xbe2f28b8	-0.17105377
23	0xbe75ce30	-0.24004436
24	0xbeb7bd1f	-0.35886475
25	0x3d0f03dd	0.034915794
26	0x3e009f44	0.12560755
27	0xbbb87bd0	-0.005629994
28	0xbcb2ebd8	-0.021840975
29	0x3d925756	0.07145564
30	0x3e9661fb	0.29371628
31	0x3d152c1a	0.03641901
32	0xbbef6eac	-0.0073068943
33	0x3c44f36d	0.012020928
34	0xbd9390c4	-0.07205346
35	0xbb0d9a3c	-0.0021606823
36	0x3e238096	0.1596702
37	0xbd0ebda7	-0.034848835
38	0xbf71f07c	-0.94507575
39	0xbbe5d824	-0.0070142914
40	0x3d22273f	0.03958821
41	0xbd40f206	-0.04710581
42	0xbf6148d2	-0.8800174
43	0xbdd627a9	-0.10456783
44	0xbee34c25	-0.4439403
45	0xbe843ec8	-0.25829148
46	0xbe841b29	-0.25801972
47	0x3df9209e	0.12164424
48	0xbd18aa62	-0.037271865
49	0x3d4b1d74	0.049588636
50	0x3bf1664e	0.007366932
51	0xbe10849d	-0.14113088
52	0xbe33981c	-0.17538494
53	0xbb84e5b0	-0.004055701
54	0x3d9d4681	0.07679463
55	0xbc8c248e	-0.017107274
56	0xbc6554d7	-0.013997278
57	0x3d451648	0.048116952
58	0xbb60a5d8	-0.0034278538
59	0x3e045e55	0.1292661
60	0xbf42a2a1	-0.760294
61	0x3d390cb0	0.045178115
62	0xbea59d36	-0.32346505
63	0xbce89c90	-0.028394967
64	0xbc30f1e0	-0.010799855
65	0xbcaf4ba2	-0.02139837
66	0x3da6f618	0.081524074
67	0x3d8b03a8	0.06787807
68	0x3d5fbfbd	0.054626215
69	0x3ce24424	0.027620383
70	0xbe086881	-0.13321115
71	0x3dd39883	0.10331824
72	0x3d8e9c50	0.06963408
73	0xbea8b2d6	-0.3294894
74	0x3d8b4f59	0.06802244
75	0x3e34907f	0.17633246
76	0x3d5cb592	0.053884096
77	0xba4e5f08	-0.0007872437
78	0xbe0eaf0f	-0.13933967
79	0x3e115916	0.1419414
80	0x3d9c72df	0.076390974
81	0xbe76ce27	-0.24102078
82	0xbe1ea4d0	-0.15492558
83	0x3e0379bc	0.12839407
84	0xbd1f7c4d	-0.0389369
85	0x3cf73468	0.030176356
86	0x3cce2d80	0.02516818
87	0xbe8080a6	-0.2509815
88	0x3d50debc	0.050993666
89	0x3c4ee778	0.012628429
90	0x3da34319	0.07971782
91	0x3df27c0a	0.11840065
92	0xbcca45b4	-0.02469144
93	0xbe103a0e	-0.14084646
94	0x3dbb54fa	0.09147067
95	0xbd443ae6	-0.047907732
96	0x3da70329	0.081548996
97	0x3d4b2f8c	0.04960589
98	0xbb10e2f0	-0.0022107922
99	0x3de65c5e	0.112480864
100	0xbd7f98ce	-0.062401585
101	0xbd7b125e	-0.061296813
102	0xbe86407c	-0.26221073
103	0xbd0dbe00	-0.034605026
104	0x3d604706	0.054755233
105	0x3d9c3e11	0.07629026
106	0x3d56097e	0.052255146
107	0x3d9bdaf7	0.076101236
108	0xbda9377f	-0.08262538
109	0x3e6f4e18	0.23369634
110	0x3d1cb33e	0.038256876
111	0x3dd4debb	0.10394045
112	0xbf878b7d	-1.0589443
113	0xbbfc57b0	-0.007700883
114	0x3e047206	0.12934121
115	0xbe5ef34b	-0.21772496
116	0xbd0ab7fd	-0.03386687
117	0xbe745da3	-0.23863845
118	0xbdb9837a	-0.0905828
119	0xbcb6bf7b	-0.022308102
120	0xbca61724	-0.020274706
121	0x3d75fd55	0.06005605
122	0xbee7036d	-0.451198
123	0xbe5c5563	-0.21516947
124	0xbda74a0d	-0.08168421
125	0x3dafc909	0.08583266
126	0xbd0b4e64	-0.034010306
127	0x3b9097f0	0.0044126436
128	0x3e2400c9	0.16015925
129	0x3d8bdc38	0.06829113
130	0x3ca549a4	0.020176716
131	0x3ca70834	0.020389654
132	0xbd64dbd8	-0.05587372
133	0xbea41c3c	-0.3205279
134	0x3dc0b6bc	0.09409854
135	0x3e3bce97	0.18340527
136	0x3dd31a30	0.10307729
137	0x3d864cfe	0.06557654
138	0xbdb09056	-0.0862128
139	0x3df1ee77	0.11813062
140	0x3c2e19c0	0.0106262565
141	0xbdc46a01	-0.09590531
142	0xbce95138	-0.02848111
143	0xbe875a67	-0.2643616
144	0xbe9723cf	-0.29519507
145	0xbca3ca3c	-0.019993894
146	0x3da6931e	0.08133529
147	0xbebe3c6f	-0.37155482
148	0xbf0cb759	-0.54967266
149	0xbe30d60c	-0.17269152
150	0xbde04c12	-0.10952009
151	0xbf778762	-0.9669095
152	0xbd839978	-0.06425756
153	0x3df7a80e	0.12092601
154	0xbf96642d	-1.1749321
155	0x3e01e9c9	0.12686838
156	0x3d948c40	0.07253313
157	0xbdf9711d	-0.12179778
158	0xbe730706	-0.23733148
159	0x3dcc42b2	0.099736586
160	0x3e02d66e	0.12777111
161	0xbf31d689	-0.6946798
162	0xbe0fdaad	-0.14048262
163	0xbef02074	-0.4689976
164	0xbf484cd8	-0.78242254
165	0x3db113fe	0.08646391
166	0xbe4baab0	-0.19889331
167	0xbe8ec160	-0.27881908
168	0x3da1b67d	0.07896135
169	0xbe44fe63	-0.19237666
170	0x3d714849	0.058906827
171	0xbd4db600	-0.050222397
172	0x3e795da4	0.24352127
173	0x3e075d91	0.13219287
174	0x3d3409b2	0.04395456
175	0xbe7f53d2	-0.24934319
176	0xbce1b518	-0.027552173
177	0x3de9814d	0.11401615
178	0x3d5b1f50	0.05349666
179	0x3e997923	0.29975232
180	0x3e112b82	0.14176753
181	0x3d467f21	0.048461083
182	0xbdbb12e2	-0.09134461
183	0xbd725ce6	-0.059170626
184	0x3d6011a7	0.054704335
185	0x3c2bc468	0.010483839
186	0x3d728af0	0.059214532
187	0x3e0159b8	0.12631881
188	0xbb869ca6	-0.0041080294
189	0xbe8f425f	-0.27980325
190	0x3ceaf7c9	0.028682606
191	0x3caabacf	0.02084103
192	0x3d857213	0.065158986
193	0xba9b3140	-0.0011840239
194	0x3db0ab62	0.08626439
195	0x3d3f42fb	0.046694737
196	0x3d4b7bb3	0.049678516
197	0xbe0aa53f	-0.13539599
198	0x3c604948	0.013689347
199	0x3e2ff681	0.17183878
200	0xbf08997d	-0.53359205
201	0x3da1e2df	0.079046
202	0xbd1beefc	-0.03806971
203	0x3cd06d6c	0.025442801
204	0xbea3c859	-0.3198879
205	0xbf058dec	-0.5216968
206	0x3e103cc1	0.14085676
207	0xbe2d73ed	-0.16938753
208	0x3e2d0734	0.16897279
209	0x3d2adef4	0.04171653
210	0xbf360827	-0.7110619
211	0x3dc91184	0.09817794
212	0x3d998518	0.07496089
213	0xbdf61655	-0.12015978
214	0x3db55fc8	0.088561594
215	0xbe0245af	-0.12721895
216	0x3dcfdefd	0.101499535
217	0xbea1a877	-0.3157384
218	0x3d315255	0.04329141
219	0x3ddaaaf6	0.106771395
220	0xbd8a4e55	-0.06753222
221	0x3d70747c	0.05870484
222	0xbd99035b	-0.07471343
223	0xbe071f45	-0.13195522
224	0x3dfd9aa1	0.12383009
225	0x3cc6d296	0.024270337
226	0x3d1908cc	0.037361905
227	0xbe7b2bf6	-0.24528489
228	0xbe5e0ea4	-0.21685272
229	0x3d8625b8	0.06550163
230	0xbda0397b	-0.078234635
231	0xbc02870c	-0.007966768
232	0x3e077394	0.13227683
233	0x3db7e69e	0.089795336
234	0x3db0ed85	0.08639053
235	0xbce5d5c4	-0.028056033
236	0x3e20ff0e	0.15722296
237	0x3c6ef532	0.014584826
238	0x3d2a3092	0.041550227
239	0xbd5d06a4	-0.05396141
240	0x3dd1094b	0.102068506
241	0xbcbb051c	-0.022829585
242	0x3cd18c7a	0.02557968
243	0x3dcab6a7	0.098981194
244	0x3cfee614	0.03111557
245	0x3be38ec0	0.0069445074
246	0x3e855441	0.26040843
247	0xbc4000f5	-0.011718978
248	0x3c6752b4	0.014118839
249	0x3da0454d	0.07825718
250	0xbe490e3b	-0.19634335
251	0xbf9022f1	-1.1260663
252	0x3c155c41	0.009116233
253	0xbe836e96	-0.25670308
254	0xbb070c00	-0.0020606518
255	0xbd775b8e	-0.060390048

fc2.bias f4 [256]
0	0xbe11f354	-0.14252979
1	0x3e641de2	0.22277024
2	0x3e3391c9	0.17536081
3	0xbdb162f4	-0.08661452
4	0x3d45ef5e	0.04832398
5	0xbd08c65b	-0.03339229
6	0xbcfd33f5	-0.030908564
7	0xbd96b49f	-0.073586695
8	0x3c3002f9	0.010742896
9	0x3e473a28	0.19455779
10	0xbc89e5f8	-0.01683329
11	0xbe712a13	-0.23551206
12	0xbde05cbe	-0.10955189
13	0xbcad7a30	-0.021176428
14	0xbe40ed0d	-0.18840428
15	0x3d3e4233	0.04644985
16	0xbdfdbd0a	-0.12389572
17	0xbd695d46	-0.056973718
18	0xbe4dd62c	-0.20101231
19	0x3e4bdcc5	0.19908436
20	0x3c689323	0.014195236
21	0x3e8dff5b	0.27733883
22	0xbd8ab89f	-0.06773495
23	0xbd9e5a98	-0.07732123
24	0xbd52f1d5	-0.05150016
25	0xbd02308c	-0.03178458
26	0x3e29aa7d	0.16568942
27	0x3d47d6fb	0.048789006
28	0xbb227525	-0.0024789062
29	0xbdb15c0b	-0.08660134
30	0x3d50b0c7	0.050949838
31	0x3d11ae0c	0.035566375
32	0xbb512e7a	-0.0031918571
33	0x3c181f3a	0.009284789
34	0x3e516572	0.20448855
35	0xbd1a5ab9	-0.037684176
36	0x3ba1ef9f	0.004941895
37	0x3d51fa50	0.051264107
38	0xb81acf61	-3.6909598e-05
39	0x3c56ef4b	0.013118575
40	0xbc50f279	-0.0127531225
41	0x3dabe938	0.08394092
42	0xbd772382	-0.060336597
43	0xbd8616d4	-0.06547323
44	0xbdfcd104	-0.12344554
45	0xbd57a97c	-0.052651867
46	0x3d79cb27	0.060984757
47	0xbe5d1fa0	-0.21594095
48	0x3be140b0	0.0068741664
49	0xbda8b593	-0.082377575
50	0x3da995d7	0.08280533
51	0xbd7a3d37	-0.061093535
52	0xbdbe7dcd	-0.09301338
53	0xbd8336b7	-0.064069204
54	0x3d454d99	0.048169706
55	0xbd28d869	-0.04122201
56	0x3daa447b	0.08313843
57	0xbd3d33ce	-0.046191983
58	0xbd045eb3	-0.032316875
59	0xbd52aeba	-0.051436163
60	0x3d8d534c	0.06900653
61	0x3e07e169	0.13269581
62	0xbd8a3393	-0.06748118
63	0xbd9cfd64	-0.07665518
64	0x3c88596c	0.016644202
65	0x3da29f15	0.07940499
66	0xbd54f9d3	-0.051996063
67	0xbe353128	-0.17694533
68	0xbe2311db	-0.1592478
69	0x3e456f71	0.19280793
70	0x3bfb619b	0.0076715476
71	0xbd4274c8	-0.047474653
72	0x3db2d1a0	0.08731389
73	0x3dd2ad7d	0.102869965
74	0xbc320562	-0.010865541
75	0x3e0b8e1f	0.13628434
76	0x3df733fe	0.120704636
77	0xbd4205e0	-0.047368884
78	0xbca42bb5	-0.020040372
79	0x3dd5cfd2	0.10440029
80	0xbd6793bf	-0.056537386
81	0xbb43e611	-0.002989177
82	0x3d54f2dc	0.05198942
83	0x3d6b187b	0.057396393
84	0xbcc9e28f	-0.024644164
85	0x3e801a7b	0.25020203
86	0x3be814e6	0.0070825694
87	0xbc9fe199	-0.019516753
88	0x3e6bc40c	0.23024005
89	0xbc0b765f	-0.008512109
90	0xbd690dc6	-0.0568979
91	0x3ddadfb2	0.10687198
92	0xbe486404	-0.19569403
93	0xbd95252b	-0.0728248
94	0x3e31f682	0.17379192
95	0x3eb473d5	0.35244623
96	0x3d7f9640	0.06239915
97	0x3e3c1222	0.18366292
98	0xbdd44580	-0.103648186
99	0xbd0836d2	-0.033255406
100	0x3dbe3997	0.09288328
101	0x3d2d3833	0.042289924
102	0xbdac088c	-0.08400068
103	0x3e05cf85	0.13067444
104	0xbe0d96f0	-0.1382711
105	0xbaa815fb	-0.0012823934
106	0xbe15c31f	-0.14625214
107	0x3e66e98b	0.22550027
108	0x3e50d43c	0.20393461
109	0x3db94ab5	0.09047452
110	0xbb83726e	-0.004011444
111	0x397d887a	0.00024178802
112	0x3d3b84c2	0.045780905
113	0x3cbdd862	0.023174468
114	0xbd1faad5	-0.038981277
115	0x3d4805d8	0.048833698
116	0xbe1eee5a	-0.15520611
117	0xbd3221fa	-0.043489434
118	0xbda4899e	-0.08034061
119	0x3dbd30b5	0.09237806
120	0x3e15ee52	0.14641693
121	0x3d548c36	0.051891528
122	0xbd3f5def	-0.04672044
123	0xbe62dd56	-0.22154745
124	0xbd35c277	-0.04437491
125	0x3bdb2774	0.006688053
126	0xbdd78738	-0.10523838
127	0x3cd5c81d	0.026096398
128	0x3d305eac	0.043059036
129	0x3e3da98c	0.18521708
130	0x3d2d385c	0.042290077
131	0x3d21cb74	0.03950067
132	0xbd8f2dec	-0.06991181
133	0xbe287042	-0.16449073
134	0x3d578861	0.052620295
135	0xbe3d9da4	-0.18517166
136	0xbcbc523b	-0.02298843
137	0xbd1c4926	-0.038155697
138	0xbc5d0a82	-0.013491275
139	0x3d8a9f94	0.06768718
140	0x3d032886	0.032021068
141	0xbd8f55e4	-0.06998804
142	0x3e1907c7	0.14944373
143	0x3d1e0be3	0.038585555
144	0xbd2034da	-0.039112903
145	0xbdbf0751	-0.09327567
146	0x3d1b2594	0.037877634
147	0x3e52db10	0.20591378
148	0xbd4244a0	-0.047428727
149	0xbadba30f	-0.0016756969
150	0xbd86f369	-0.065893956
151	0x3d08c648	0.03339222
152	0x3d13b935	0.0360653
153	0xbd00540e	-0.03133016
154	0xbb7fa10a	-0.00390059
155	0x3e20d64f	0.15706752
156	0xbdb1c107	-0.08679395
157	0xbd6a8ea1	-0.057264928
158	0x3e0d0190	0.13770127
159	0xbc78d810	-0.015188232
160	0x3e25e9ec	0.16202515
161	0xbd1a146f	-0.037617143
162	0xbda9e123	-0.082948945
163	0x3d64a3af	0.055820163
164	0x3db01ab1	0.08598841
165	0xbe6366ea	-0.22207227
166	0x3ca24a54	0.019810833
167	0xbd2057a4	-0.03914608
168	0xbd5519cb	-0.05202655
169	0x3e717b85	0.23582275
170	0x3ca3f6da	0.020015169
171	0xbdea54c5	-0.1144195
172	0xbd195e3a	-0.037443377
173	0x3e16312b	0.14667194
174	0x3bf91972	0.0076019103
175	0x3d07a8d8	0.033120006
176	0xbd096689	-0.03354505
177	0x3e39d6ed	0.18148394
178	0x3e5fd370	0.21858001
179	0xbd5d3bcd	-0.05401211
180	0x3ce61714	0.028087176
181	0x3c8243d1	0.015901478
182	0x3b2481e6	0.002510184
183	0xbdd10835	-0.102066435
184	0x3e058e92	0.13042668
185	0x3e6173d0	0.22016835
186	0xbdb5203b	-0.08844038
187	0xbcb0508f	-0.021522788
188	0xbda69881	-0.081345566
189	0xbbac853b	-0.0052649057
190	0xbc91b355	-0.017785707
191	0x3e3c209c	0.18371814
192	0xbd749d54	-0.059720352
193	0xbe8615f2	-0.26188618
194	0xbe161268	-0.14655459
195	0x3c4cd5a8	0.0125021115
196	0xbd2b113b	-0.04176448
197	0x3c97ad89	0.018515365
198	0xbc63da54	-0.013907034
199	0xbdbecdf7	-0.093166284
200	0x3d939f4f	0.0720812
201	0x3e933cb8	0.28757262
202	0xbd85a2e7	-0.06525212
203	0x3c184cbf	0.009295641
204	0xbc13ada9	-0.009013572
205	0x3c8540f5	0.016266325
206	0xbd786700	-0.060645103
207	0xbc8cd1b4	-0.017189838
208	0xbc21ef86	-0.009883767
209	0xbd19a551	-0.037511174
210	0x3e55df77	0.20886026
211	0x3cb012e6	0.021493386
212	0x3cbc0687	0.022952331
213	0x3e47cbd9	0.19511355
214	0xbd875a02	-0.066089645
215	0xbd2aeed8	-0.041731685
216	0x3e248d09	0.16069426
217	0xbda380dc	-0.07983562
218	0xbd386aca	-0.045023717
219	0x3e5abfbd	0.21362205
220	0x3ce8d9f7	0.028424246
221	0xbcec429b	-0.028840354
222	0x3c7f8b30	0.01559715
223	0xbc4ddd64	-0.012564991
224	0x3b59d041	0.0033235701
225	0xbe250062	-0.16113427
226	0x3e52cca1	0.20585872
227	0xbd78035d	-0.060550082
228	0x3df984d4	0.12183538
229	0x3d91fc18	0.07128161
230	0xbd675e60	-0.056486487
231	0xbdc12dc0	-0.09432554
232	0xbd898850	-0.06715453
233	0xbb84c850	-0.0040521994
234	0x3b3daf9d	0.0028943785
235	0xba1b9de0	-0.0005936306
236	0xbda39abc	-0.079884976
237	0xbd89b3c1	-0.067237385
238	0x3c470f17	0.012149594
239	0xbc73d92e	-0.014883323
240	0x3e344dde	0.17607829
241	0xbcda4669	-0.026644902
242	0xbe61d8f9	-0.22055425
243	0x3d2468d2	0.040139027
244	0x3cbcb747	0.023036612
245	0xbd11c882	-0.03559161
246	0xbdd79f08	-0.1052838
247	0x3c669fe6	0.014076209
248	0xbdc01f3c	-0.093809575
249	0xbca12a58	-0.019673511
250	0x3cc2cf09	0.023780363
251	0xbd89a956	-0.067217514
252	0x3e2fadd6	0.17156157
253	0xbd501423	-0.050800454
254	0xbe6c60f9	-0.23083867
255	0xbd06cd98	-0.032910913

mean_linear.weight f4 [2, 256]
0	0x3f18dc6d	0.59711343
1	0xbc9aa1fb	-0.018876066
2	0xbd94078d	-0.07228003
3	0xbda710e0	-0.081575155
4	0xbd417055	-0.04722627
5	0xbc7c5eb6	-0.01540344
6	0x3c920796	0.017825883
7	0x3b498d6f	0.0030754467
8	0xbd4d2d72	-0.05009217
9	0xbcca1626	-0.024668764
10	0xbd17dcdc	-0.037075862
11	0x3e1e6e32	0.15471724
12	0x3c00c2c9	0.00785894
13	0xbb80e5ca	-0.003933643
14	0xbdd508ee	-0.10402094
15	0x3d310df0	0.043226182
16	0x3d0c9763	0.03432406
17	0xbbb69a9b	-0.0055726296
18	0xbdd89934	-0.10576096
19	0xbdd414a3	-0.10355499
20	0xbc884d41	-0.0166384
21	0xbc9ec505	-0.019381056
22	0x3d106777	0.03525492
23	0x3e3d663c	0.1849603
24	0xbd27e5b4	-0.040990546
25	0x3d54b268	0.051927954
26	0xbee5fda9	-0.4492009
27	0xbc004f84	-0.007831458
28	0x3d02e271	0.031954233
29	0x3f0b5724	0.5442984
30	0xbb47cd3c	-0.003048732
31	0xbd5476c6	-0.051871084
32	0x3d064d43	0.032788526
33	0x3c8ee681	0.017443897
34	0xbe66b2bf	-0.22529124
35	0xbd74beb7	-0.059752192
36	0x3d320ed1	0.04347116
37	0x3bf948b4	0.007607544
38	0x3d081bf8	0.033229798
39	0x3d112d93	0.035443854
40	0xbea915ec	-0.33024538
41	0x3ec90662	0.39262682
42	0xbcf30443	-0.029665118
43	0xbe4f09f2	-0.20218638
44	0xbad63b77	-0.0016344626
45	0xbc794df0	-0.015216336
46	0xbeefb9f2	-0.46821553
47	0x3f79fc16	0.9765028
48	0x3d65095c	0.05591713
49	0x3daa51b0	0.08316362
50	0xba89953e	-0.0010496748
51	0x3d0a3d01	0.033749584
52	0xbd95bade	-0.07311033
53	0xbc4ff826	-0.012693441
54	0x3d8d0f94	0.06887737
55	0xbba8eb83	-0.0051550283
56	0x3c8bdda3	0.017073458
57	0xbd171984	-0.036889568
58	0xbd35a8bb	-0.044350367
59	0x3ab15e8d	0.0013532207
60	0x3eaac8b8	0.3335626
61	0x3c42a835	0.011880924
62	0xbd32dd0e	-0.043667845
63	0xbd012e25	-0.031538147
64	0xbd2f66ac	-0.042822525
65	0xba261978	-0.00063361926
66	0x3e2e398f	0.17014144
67	0xbe10561b	-0.14095347
68	0x3d7d4ed9	0.061842773
69	0xbde262d6	-0.11054008
70	0x3c74b093	0.014934677
71	0xbcf3a0e4	-0.029739805
72	0xbce98382	-0.02850509
73	0xbba34b9d	-0.004983379
74	0xbbd6e8f0	-0.00655853
75	0xbde41599	-0.11136932
76	0xbe3f5749	-0.1868564
77	0xbcbf69c9	-0.023365872
78	0x3c16e569	0.009209969
79	0x3da21b38	0.07915348
80	0x3f502613	0.81308097
81	0xbc1c0375	-0.009522309
82	0xbd2b3b88	-0.04180482
83	0x3c307881	0.010770918
84	0xbc463f06	-0.012099987
85	0xbda8e800	-0.082473755
86	0x3d074c0c	0.03303151
87	0xbd0081be	-0.03137373
88	0xbd51574e	-0.05110865
89	0xbd22a38e	-0.03970676
90	0xbc802340	-0.015641809
91	0xc00177b9	-2.0229323
92	0x3e18662c	0.14882725
93	0x3e919f6b	0.2844194
94	0xbcdde855	-0.027088324
95	0xbd1322ea	-0.03592197
96	0x3ce20d41	0.02759421
97	0xbc222b0f	-0.009897961
98	0x3eb83d46	0.35984248
99	0xbcf0d00a	-0.029396076
100	0xbda28261	-0.07935024
101	0xbd56f048	-0.052475244
102	0xbc0e862f	-0.008698984
103	0x3e386117	0.18005787
104	0xbdd6241b	-0.10456105
105	0x3d8151ec	0.063144535
106	0xbe01f3df	-0.12690686
107	0xbdf19853	-0.11796632
108	0x3c8c73b4	0.017145015
109	0x3ddc6db7	0.10763114
110	0x3cd13f0f	0.025542764
111	0xbdc1fc71	-0.094719775
112	0x3d158cab	0.036511105
113	0x3d999d8a	0.07500751
114	0xbd0f9152	-0.035050698
115	0x3d4fcf43	0.05073477
116	0x3f1ebaac	0.6200359
117	0xbd2f2bb1	-0.042766277
118	0x3b47f6a5	0.0030512002
119	0x3ed0072e	0.40630478
120	0xbf0e4961	-0.5558072
121	0x3d4b5236	0.04963895
122	0xbd54ff5b	-0.05200134
123	0x3f8c8976	1.097945
124	0x3d4c871e	0.049933545
125	0x3e74a3d4	0.2389062
126	0x3d8ef3f2	0.069801226
127	0x3d198768	0.03748265
128	0x3d426f5a	0.047469474
129	0xbce18a80	-0.027531862
130	0x3d1afee0	0.037840724
131	0xbd4ddb69	-0.050258074
132	0x3d576454	0.052585915
133	0x3f767393	0.962701
134	0x3cfe25b2	0.031023834
135	0x3f05402c	0.52051044
136	0x3d196b3e	0.03745579
137	0x3d5fdca8	0.054653794
138	0xbd2614a4	-0.04054703
139	0x3eaae75b	0.33379635
140	0x3d47af0b	0.04875092
141	0x3c1632d5	0.009167393
142	0x3d0a03bf	0.03369498
143	0xbd35d537	-0.04439279
144	0x3d1d438b	0.038394492
145	0x3f9f0189	1.2422343
146	0x3d8d91d0	0.06912577
147	0xbb99f573	-0.0046984493
148	0x3ee01b28	0.4377072
149	0x3eb7dbb0	0.35909796
150	0xbbbfea9d	-0.0058568255
151	0x3d0e0aa3	0.034678113
152	0xbcac84e4	-0.021059461
153	0xbcf4a10a	-0.029861946
154	0xbca100b8	-0.019653663
155	0xbcab0ab5	-0.020879129
156	0x3961ccde	0.00021533991
157	0xbcf774fc	-0.03020715
158	0xbe0a904b	-0.13531606
159	0x3bc14290	0.0058978274
160	0xbf36905e	-0.71314037
161	0xbcaed13c	-0.021340005
162	0x3f3a8426	0.7285789
163	0xbea76ba5	-0.32699314
164	0xbbb7dd5c	-0.005611105
165	0x3ed0478e	0.40679592
166	0xbd2cb56f	-0.042165216
167	0xbd75fea8	-0.060057312
168	0x3d9bd687	0.07609277
169	0xbc9016d2	-0.017589007
170	0x3c07dea3	0.008292827
171	0x3cd48735	0.025943378
172	0xbd069afa	-0.03286264
173	0xbcbece56	-0.023291748
174	0xbaef634d	-0.0018263847
175	0xbdd48983	-0.10377791
176	0xbdaa93b4	-0.083289534
177	0x3d511e98	0.051054567
178	0xbc705b5c	-0.014670219
179	0x3f00d49a	0.50324404
180	0xbce082e5	-0.027406165
181	0x3bd5a2ce	0.006519652
182	0xbe441f11	-0.19152476
183	0x3ce906c4	0.028445609
184	0xbb26e082	-0.0025463407
185	0xbba73381	-0.0051025753
186	0x3e643d12	0.22288921
187	0xbcc68dc4	-0.024237521
188	0x3df6e14f	0.12054693
189	0x3bfdaa57	0.0077412534
190	0x3e6a01d9	0.22852267
191	0xbe3ba9c8	-0.18326485
192	0x3d6040c9	0.054749284
193	0x3f1cebc4	0.6129725
194	0xbd78c3e0	-0.060733676
195	0x3d087426	0.033313893
196	0xbd2c142f	-0.042011436
197	0x3d76dad6	0.060267292
198	0xbd541771	-0.051780168
199	0xbcb727e3	-0.022357887
200	0x3f3f7855	0.7479299
201	0xbc95cceb	-0.018286189
202	0x3d7c9a4b	0.061670583
203	0x3d305479	0.04304931
204	0x3cd6b41b	0.026208928
205	0xbc6fcc87	-0.014636165
206	0xbbc87830	-0.006117843
207	0xbcbb6578	-0.022875533
208	0x3d30419b	0.043031316
209	0x3ca089ff	0.019597052
210	0xbc804621	-0.01565844
211	0xbcac34bf	-0.021021245
212	0xbe237c62	-0.15965417
213	0xbcfead22	-0.031088416
214	0x3c3fe852	0.011713104
215	0x3bd38729	0.0064553213
216	0xbce151ff	-0.02750492
217	0xbd7d9679	-0.06191108
218	0x3bef825a	0.0073092403
219	0xbcb26ea0	-0.021781266
220	0xbb50fb75	-0.0031888161
221	0xbc134f60	-0.008991092
222	0xbd39398d	-0.0452209
223	0x3caf645a	0.021410156
224	0x3d5a61e0	0.053315997
225	0xbe1703ba	-0.14747515
226	0x3c4c3ff1	0.012466417
227	0x3eab6e0c	0.33482397
228	0xbc2f43ed	-0.010697347
229	0x3cf187a4	0.029483624
230	0xbd55ad26	-0.05216708
231	0xbe3a6660	-0.18203115
232	0xbd5d6ae9	-0.054057036
233	0x3d09d1f6	0.0336475
234	0x3c53a2aa	0.0129172
235	0xbbb3024c	-0.0054629203
236	0x3d7a5725	0.061118264
237	0x3cd26ba4	0.025686093
238	0x3c3fcb59	0.011706197
239	0xbcdb683d	-0.026783103
240	0xb98f8385	-0.00027373075
241	0xbbd3ac3e	-0.006459742
242	0x3e4ab76d	0.19796534
243	0x3e183acc	0.14866179
244	0xbd0b0675	-0.033941705
245	0xbbbd67a2	-0.0057801763
246	0x3d9491ad	0.07254348
247	0xbd2e6f59	-0.04258666
248	0xbad24378	-0.0016041836
249	0x3c917758	0.017757103
250	0xbca24fd8	-0.019813463
251	0x3d792875	0.0608296
252	0xbda318f4	-0.07963744
253	0x3d4e15a6	0.050313614
254	0x3bcd4690	0.006264515
255	0x3d5876d9	0.052847717

mean_linear.bias f4 [2]
0	0xbd29784e	-0.041374497
1	0x3e19a78f	0.15005325

log_std_linear.weight f4 [2, 256]
0	0x3b8f2fec	0.0043697264
1	0x3bf6a578	0.0075270496
2	0xbd1d2c5d	-0.038372386
3	0x3ce20342	0.027589444
4	0x3c58eed1	0.013240532
5	0xbcc9aec3	-0.024619466
6	0x3c72aa09	0.014811047
7	0xbd2e3472	-0.042530484
8	0x3c08089f	0.008302837
9	0xbd8848fe	-0.06654547
10	0x3cc54f8a	0.024085779
11	0x3d57907e	0.052628033
12	0x3b89bcaa	0.0042033987
13	0xb9bfe08c	-0.0003659766
14	0x3c8178df	0.015804706
15	0xbca95045	-0.020668158
16	0x3cc2aeab	0.023764929
17	0x3c458b14	0.012057085
18	0xbc990069	-0.018676953
19	0xbd2e4436	-0.04254552
20	0xbbb6b0ef	-0.0055752913
21	0xbd874a09	-0.06605918
22	0xbd82180d	-0.063522436
23	0x3c2aa8f8	0.010416262
24	0xbbfbc6eb	-0.007683625
25	0x3ccb5246	0.024819504
26	0x3ec28d64	0.37998497
27	0x3d117b86	0.03551819
28	0x3ccf05a0	0.025271237
29	0x3d959592	0.07303919
30	0xbb4252e2	-0.0029651453
31	0x3d117f2c	0.03552167
32	0xbc7a7889	-0.015287527
33	0xbd2c4ddc	-0.04206644
34	0xbaca0b5f	-0.0015414766
35	0xbb1f95d2	-0.0024350774
36	0xbd3f4358	-0.046695083
37	0xbd3250bf	-0.043534037
38	0xbd6a23bd	-0.05716299
39	0x3d37c2eb	0.044863623
40	0x3ce568b9	0.028004037
41	0xbd81d509	-0.06339461
42	0xbcdc8d48	-0.026922837
43	0x3cac0575	0.020998696
44	0x3c120d7e	0.00891435
45	0x38053000	3.1754375e-05
46	0x3e2e3a3b	0.170144
47	0xbc04c2fa	-0.008103127
48	0x3cb57a61	0.022153081
49	0x3b0c2eaf	0.002139013
50	0xbb00ad91	-0.0019634704
51	0x3c10f431	0.008847282
52	0x3cc0b445	0.02352346
53	0xbcfba237	-0.030716999
54	0xbc353eb8	-0.011062317
55	0x3d1ab570	0.03777069
56	0xbd3eb45b	-0.04655872
57	0xbcb246de	-0.021762308
58	0xbc6f22b1	-0.014595673
59	0x3d0955e6	0.033529185
60	0xbb975459	-0.0046182093
61	0xbb77b06f	-0.0037794372
62	0xbd08af5a	-0.033370353
63	0x3c794a57	0.015215478
64	0x3ce0c730	0.02743873
65	0xbd09620f	-0.03354078
66	0xbd9c98a9	-0.07646305
67	0x3d59bc53	0.053158116
68	0x3d0cf08f	0.034409102
69	0xbe025b41	-0.12730123
70	0x3ac8d4c3	0.0015322197
71	0x3d76dd3e	0.060269587
72	0x3d004a84	0.031321064
73	0xba6d989b	-0.00090635725
74	0x3b7a955e	0.0038236002
75	0xbc1eb73c	-0.009687241
76	0x3a5c74e2	0.0008409751
77	0xbc0f1b35	-0.008734514
78	0x3c2c62bc	0.010521587
79	0xbb812981	-0.003941715
80	0xbd90dc1b	-0.07073232
81	0xbd45d441	-0.048298124
82	0x3cbfa765	0.02339525
83	0xbb8062a0	-0.003918007
84	0x3cd6af4b	0.026206633
85	0xbd608bd4	-0.05482085
86	0x3ca4a179	0.020096527
87	0xbd206dd4	-0.03916724
88	0xbd923edb	-0.07140895
89	0xbd376836	-0.044777118
90	0xbd157380	-0.036487103
91	0x3e629e56	0.22130713
92	0xbc9dff57	-0.019286795
93	0xbc81a2f2	-0.015824769
94	0x3d946813	0.07246413
95	0xbed0a806	-0.40753192
96	0xbd33014c	-0.04370241
97	0x3c8f59b6	0.017498832
98	0xbb3ffcb6	-0.0029294915
99	0x3c9a377d	0.018825287
100	0x3a121a2c	0.0005573358
101	0x3cf0ced4	0.029395498
102	0x3c72eae5	0.014826511
103	0xbb95c8db	-0.004571063
104	0x3da5ce22	0.08095957
105	0xbc9e5024	-0.019325323
106	0x3c253841	0.010084213
107	0xbcfae4f2	-0.030626748
108	0xbd7f94ca	-0.062397756
109	0xbd3cd536	-0.04610177
110	0xbd4d6537	-0.050145354
111	0x3accf9de	0.0015638431
112	0xbd335118	-0.04377851
113	0x3d276b32	0.040873714
114	0x3cf58594	0.029970922
115	0x3d107dcf	0.03527623
116	0x3b2550e0	0.0025225207
117	0x3d024b7d	0.031810272
118	0xbc88d1da	-0.016701628
119	0x3dac0248	0.083988726
120	0x3e0d7735	0.13815005
121	0xbcfc224f	-0.030778078
122	0xbca7e4a6	-0.02049477
123	0xbb84dfcf	-0.0040550004
124	0x3d836734	0.06416169
125	0x3dc706dd	0.09718106
126	0x3c0b610c	0.0085070245
127	0xba34f374	-0.00069027324
128	0x3dffaaa4	0.12483719
129	0x3def2fb8	0.116790235
130	0xbd8b3729	-0.0679763
131	0x3c618471	0.013764487
132	0xbcc8b419	-0.02449994
133	0x3c5d8452	0.013520317
134	0xbc10b2c4	-0.008831684
135	0x3c124165	0.008926724
136	0xbc98537b	-0.018594494
137	0xbca11dd3	-0.019667542
138	0xbd1333ba	-0.035938002
139	0xbdb6aa0a	-0.08919151
140	0xbc304975	-0.010759701
141	0xbd081bd0	-0.03322965
142	0xbcc8e41c	-0.024522834
143	0xbc5533db	-0.013012852
144	0x3cc77d86	0.024351846
145	0xbc14d801	-0.0090847025
146	0xbd10cf23	-0.03535379
147	0xbdaca888	-0.08430582
148	0x3e31e613	0.17372923
149	0xbd346b6c	-0.044047758
150	0xbbe79c16	-0.0070681674
151	0xbd5e9986	-0.05434563
152	0xbc871ffa	-0.01649474
153	0xbc78c0f6	-0.015182724
154	0xbca53c50	-0.02017036
155	0xbca366b2	-0.01994643
156	0xbc42186e	-0.011846645
157	0x3d15567c	0.03645943
158	0xbd003a13	-0.031305384
159	0x3d3ef3b4	0.046619132
160	0x3f1ba91a	0.60804904
161	0x3d162102	0.036652572
162	0xbc3c767c	-0.011502858
163	0x3cbabd65	0.022795388
164	0xbb6ef587	-0.0036462264
165	0x3c2028ff	0.009775399
166	0x3d4904e1	0.04907692
167	0xbbe60ab0	-0.007020317
168	0xbcc8a699	-0.024493502
169	0xbd46f9d2	-0.04857809
170	0xbc53fb4e	-0.012938334
171	0x3b9e6b7a	0.0048345895
172	0x3d4e5b2e	0.050379924
173	0xbdcfb333	-0.101416014
174	0x3cda6207	0.026658071
175	0x3bbebd86	0.005820933
176	0xbcd0af96	-0.02547435
177	0x3efa9c46	0.48947352
178	0xbe7ab4a9	-0.24482979
179	0xbcd5ef67	-0.026115132
180	0xbd810388	-0.06299502
181	0xbcc93cfb	-0.02456521
182	0xbddeff52	-0.10888542
183	0x3bdfcb3c	0.0068296473
184	0xbd912670	-0.070874095
185	0xbd73aea0	-0.059492707
186	0xbceefbad	-0.029172743
187	0x3d785403	0.060626995
188	0x3d884190	0.0665313
189	0xbd44b1d9	-0.04802117
190	0xbd325cfc	-0.043545708
191	0xbcdb90a3	-0.026802367
192	0x3d65bc8c	0.056088015
193	0xbc2a40a5	-0.010391389
194	0x3c86fbee	0.016477551
195	0x3b987c40	0.0046534836
196	0xbc94f290	-0.018182069
197	0xbd2672b5	-0.040636737
198	0x3d244b69	0.04011098
199	0x3d0034e7	0.03130045
200	0xbc78e317	-0.015190861
201	0xbc9e7592	-0.019343171
202	0xbb2bf667	-0.0026239397
203	0x3b5405f9	0.0032352193
204	0xbc07ec68	-0.00829611
205	0xbc0fcb95	-0.008776565
206	0x3ab470c0	0.0013766512
207	0x3cd749e0	0.026280344
208	0x3c8a93b3	0.016916132
209	0xbd1cb2a6	-0.03825631
210	0x3d338896	0.04383143
211	0x3b4318c9	0.0029769412
212	0xbcc2ed05	-0.02379466
213	0xbd772f34	-0.06034775
214	0xbcf8282d	-0.030292595
215	0x3d6dea63	0.058084857
216	0x3b7012e4	0.0036632353
217	0x3bcbf43e	0.0062241843
218	0xbd448daa	-0.047986664
219	0x3d37245d	0.044712413
220	0xbc0cc550	-0.008591965
221	0xbd15a880	-0.036537647
222	0x3d1bf6bd	0.038077105
223	0x3d4cac2c	0.049968883
224	0x3c71d9be	0.014761386
225	0xbceafade	-0.028684076
226	0x3d076df2	0.033063836
227	0xbd7e41f0	-0.0620746
228	0xbcac95a6	-0.021067452
229	0x3c897780	0.016780615
230	0xbbe6483b	-0.0070276535
231	0xbd7ef094	-0.062241152
232	0x3d336e8d	0.0438066
233	0xbb0b83bc	-0.0021288237
234	0xbd466305	-0.048434276
235	0xbd5cd96d	-0.05391829
236	0x3b8e49a5	0.004342275
237	0x3b19d1b3	0.0023470938
238	0x3d46f451	0.048572842
239	0xbc19e4b0	-0.009392902
240	0xbdcb2be9	-0.099204846
241	0xbd208af0	-0.039195
242	0x3c920601	0.017825129
243	0xbb5b3ca2	-0.0033452888
244	0xbb84e82c	-0.0040559974
245	0xbc5f3e98	-0.013625763
246	0x3d7f61c6	0.062349103
247	0x3b1ad323	0.0023624382
248	0x3c3b991f	0.011450081
249	0x3bafe7d6	0.005368213
250	0x3cd4a523	0.02595765
251	0xbc3698f3	-0.011144864
252	0x3ca466b2	0.0200685
253	0x3beb72d7	0.007185321
254	0xbc398266	-0.011322593
255	0xbd4f8483	-0.050663482

log_std_linear.bias f4 [2]
0	0xbeac45b3	-0.33646926
1	0xbe23d5c3	-0.15999512
